train_output/model_state_dict.pth (torch, 45185 bytes, 23 tensors)

models.0.layer.weight f8 [1, 200]
-104207.1854995738 -79134.50590862943 1574.4667847042535 19674.797350675133 14756.385713423595 1506.4299795004342 -8538.143473732018 -24848.91775316398
6285.750758002933 -1191.9103235398686 27168.55859010525 26022.619794830778 7488.475616786817 -1944.6674246140449 -20431.99471984534 3667.127601672557
21178.231180594328 17504.774318235173 -11353.922341848123 -4969.829084933464 -2176.881521678347 4177.245335439738 77.25777603043987 2256.630294755549
-954.1260919614964 1456.9228356571482 -1116.1501435820694 -4390.476336051989 -2409.703871150496 -3274.3114621865566 4214.509892137907 -5713.724767202419
18269.42307157234 721.6625410890533 11409.538851322273 -6271.168654520902 4924.458450041657 -13033.327893903459 -1414.2056771816206 -1467.1695526971832
-1106.7112821589594 -2895.5052673603523 1663.1789863260362 4137.9561947054135 -4711.04630129415 1478.449619758706 7922.162957216057 2812.8856761713196
1892.312773647112 10024.910466567337 -8112.583979995443 10028.189411347044 1141.9199267855022 -11374.457238979741 14050.012909940693 -16678.912622931595
-8757.473343858508 -5056.6921435240865 -3932.886767474465 3447.24428077675 -1713.2554642381167 10718.671045780173 -5008.20801566601 -17441.26431340803
-5524.035428509306 5316.029395925307 -5448.781461741159 3163.5933368927617 24870.93021430507 1192.1531399724379 -8458.334246509416 -3506.445854609822
3532.922699914859 -5666.014800458336 -3709.7745152060706 4553.820650734528 -4845.475923188901 -7736.172302330393 2097.600919527894 2412.047290259696
2292.800057551751 316.4210639457453 797.0862464323241 -4709.802376365314 -5368.411955062608 -542.5948491062725 -930.5411838205397 -1763.9320409009406
-500.1763074092678 -1490.8835050952634 -449.1688102594759 3515.951550892992 4782.8045192277905 2358.3761000234663 -2667.447402133739 -630.3102306493923
-257.3482820575391 597.7786392397313 -457.8765062129751 961.9222306217124 1959.129889822762 -1251.3522421480905 799.504111975796 -967.7572767247507
-1111.59184050998 -390.06608155877393 101.51984056171969 -1266.603035288698 1439.418660192902 -571.6246954452513 780.2638806119551 2120.491905269477
-1283.0420045699705 484.9215094768652 1730.2817385229534 -437.1054247989506 -196.95154015374624 -337.28328034776797 398.41384354244667 -327.2731229406836
-207.3889887305097 45.128748625371244 159.38136027306737 -229.76661502269152 -887.0928255686765 -342.28180553222904 136.65845818241218 33.743830496148085
169.07220549841014 104.18899052431541 4.962218377161671 134.8525338455205 82.25861790031361 17.350584808283866 -53.924496065265615 62.35999926237709
-148.27032664398516 3.699289190543422 66.5650333336076 118.99163886634388 -31.537594163521355 11.943646139253413 61.62271706331299 13.159720304092366
-13.267059375918873 24.04842723336203 -111.12991800814218 61.514220724994445 51.84198583729822 75.06376434170147 33.12460110616349 -20.974555913407748
-9.338884565519217 25.124891903426867 3.1258408641326105 -15.385030799343394 -36.68053605112166 -80.94677618235609 35.321374651257464 -78.92339605111479
9.58709410263144 -1.5466826110759146 -35.975459329661874 -70.80530357591797 -37.0433233092456 -10.170376783336204 -5.949634961825412 8.631340514495399
-5.669909596784844 7.726080695622316 14.540718627165575 3.9204465600050202 1.7575075928025485 5.605149097531004 -2.8765176869771705 22.386813506030997
-3.9733760863613212 7.603532537937104 -0.04774444049592258 -0.5756058093002471 -8.891402522039435 3.1175960298951897 -2.7078016854077274 0.0019970675787650757
-5.66477105784689 -4.773541433604379 -0.30995150669440824 1.110915479159248 -2.4056699758759152 -1.492977940927369 0.5539982004062156 -3.0074054115879587
0.8857608655029338 2.104127628105239 0.29115144818638916 4.62424801593253 2.001705444631102 -1.0534940545476217 0.12573136063016346 1.9023619456504133
00000000: ae66 cef7 f270 f9c0 a3a5 3318 e851 f3c0
00000010: 2b3c cffc dd99 9840 4920 cb07 b336 d340
00000020: fcb5 0e5f 31d2 cc40 43d1 8b4c b889 9740
00000030: 6de5 585d 12ad c0c0 46c4 77bc 3a44 d8c0
00000040: cf2d ad31 c08d b840 0fa2 da2b a49f 92c0
00000050: 7bb6 f0bf 2388 da40 1bf0 b7aa a769 d940
00000060: cf90 05c2 7940 bd40 79a7 5b71 ab62 9ec0
00000070: 1b6d 7da9 fff3 d3c0 18a5 0155 41a6 ac40
00000080: 07b1 a9cb 8eae d440 3112 6e8e 3118 d140
00000090: b634 4c0f f62c c6c0 d602 e93e d469 b3c0
000000a0: 6e36 cf56 c301 a1c0 39aa 4dce 3e51 b040
000000b0: a51b 0967 7f50 5340 d983 feb5 42a1 a140
000000c0: 5397 803c 02d1 8dc0 239c d4fb b0c3 9640
000000d0: c53a 3dbf 9970 91c0 33d5 28f1 7926 b1c0
000000e0: f5a7 cc61 68d3 a2c0 67c2 f877 9f94 a9c0
000000f0: cc88 4a88 8276 b040 9ae7 578a b951 b6c0
00000100: c4c9 9a13 5bd7 d140 ecad 57e2 4c8d 8640
00000110: 4983 14f9 c448 c640 9953 f12c 2b7f b8c0
00000120: c45f fb5c 753c b340 f56b 6df8 a974 c9c0
00000130: 6002 0a9d d218 96c0 67e5 389f adec 96c0
00000140: d6ab 595a d84a 91c0 e648 67b2 029f a6c0
00000150: 0703 3148 b7fc 9940 5c1c 2dc9 f429 b040
00000160: 23d0 66da 0b67 b2c0 1c3d 1f69 cc19 9740
00000170: 9d69 90b7 29f2 be40 54dd 5877 c5f9 a540
00000180: 9625 bc47 4091 9d40 6821 2b8a 7494 c340
00000190: f285 b67f 95b0 bfc0 868a a13e 1896 c340
000001a0: c989 4901 aed7 9140 3990 ce86 3a37 c6c0
000001b0: 896e 08a7 0171 cb40 3203 6a68 ba49 d0c0
000001c0: 0714 8896 bc1a c1c0 1768 5130 b1c0 b3c0
000001d0: f8eb 6206 c6b9 aec0 5eb6 5e12 7dee aa40
000001e0: 09d0 6a98 05c5 9ac0 fbff d3e4 55ef c440
000001f0: 92c2 8340 3590 b3c0 d9c8 82ea 5008 d1c0
00000200: d1c0 d711 0994 b5c0 d4c9 7d86 07c4 b440
00000210: 5a6d e00d c848 b5c0 d86b dac9 2fb7 a840
00000220: a394 a188 bb49 d840 5395 b9d0 9ca0 9240
00000230: 5ff1 96c8 2a85 c0c0 ea2f 0e47 e464 abc0
00000240: af8c 1f6c d899 ab40 857c f6c9 0322 b6c0
00000250: a8d0 418d 8cfb acc0 3ca2 2a16 d2c9 b140
00000260: bd23 1ad6 79ed b2c0 106a 011c 2c38 bec0
00000270: aa6f b9ab 3363 a040 a1cd 6d36 18d8 a240
00000280: 60b7 24a1 99e9 a140 0348 8cad bcc6 7340
00000290: d431 f8a1 b0e8 8840 1b98 8968 cd65 b2c0
000002a0: 5311 e375 69f8 b4c0 f68b 3f40 c2f4 80c0
000002b0: bdd2 2e58 5414 8dc0 4c10 ee68 ba8f 9bc0
000002c0: 90cd b727 d242 7fc0 0648 8fb5 884b 97c0
000002d0: dafa 6272 b312 7cc0 c3bb ad31 e777 ab40
000002e0: 5ddc f8f4 cdae b240 a0a9 2e90 c06c a240
000002f0: 2479 e411 e5d6 a4c0 dbea 345a 7bb2 83c0
00000300: a0ee 3490 9215 70c0 3ab0 35a7 3aae 8240
00000310: 80f7 602b 069e 7cc0 ffbc 72ba 600f 8e40
00000320: 6273 d601 859c 9e40 4969 2ab2 688d 93c0
00000330: 870c dc6b 08fc 8840 9c76 19e7 0e3e 8ec0
00000340: 404b 700b 5e5e 91c0 d85c 89ab 0e61 78c0
00000350: 1aee 5811 4561 5940 2b2d 1582 69ca 93c0
00000360: 9bf2 41b5 ac7d 9640 845a 5360 ffdc 81c0
00000370: 2a33 706d 1c62 8840 44ea 01db fb90 a040
00000380: 39f9 3e03 2b0c 94c0 71a1 b880 be4e 7e40
00000390: 6f38 1080 2009 9b40 e2fa e9d1 af51 7bc0
000003a0: 7825 5604 739e 68c0 3554 f950 8814 75c0
000003b0: 8207 681a 9fe6 7840 6020 29b6 5e74 74c0
000003c0: a881 7e98 72ec 69c0 eeaf bfd5 7a90 4640
000003d0: 2d9a 751a 34ec 6340 a362 3a1c 88b8 6cc0
000003e0: 96ed 541b beb8 8bc0 178c 8446 8264 75c0
000003f0: cee7 e416 1215 6140 9b5c 73d6 35df 4040
00000400: 6ac8 e781 4f22 6540 124c b66b 180c 5a40
00000410: 0a14 36c6 4fd9 1340 cc27 0ff5 47db 6040
00000420: 7500 1832 8d90 5440 bb0d 0eed bf59 3140
00000430: 5acc 16e3 55f6 4ac0 323f b174 142e 4f40
00000440: ebe4 0f84 a688 62c0 7aa4 5eee 2498 0d40
00000450: a63f 9281 29a4 5040 ed18 dd02 77bf 5d40
00000460: 3ed8 66c5 9f89 3fc0 1e2e 3696 25e3 2740
00000470: 94cb 5631 b5cf 4e40 f32a 15dc c651 2a40
00000480: ce52 ab01 bc88 2ac0 9386 27ba 650c 3840
00000490: 7508 9f93 50c8 5bc0 6663 16fc d1c1 4e40
000004a0: 0d72 2131 c6eb 4940 9090 08b7 14c4 5240
000004b0: 4102 d6ed f28f 4040 ae35 107f 7cf9 34c0
000004c0: 650c 1c47 82ad 22c0 ebc0 70ea f81f 3940
000004d0: 7b99 dfda b801 0940 e643 c6c1 22c5 2ec0
000004e0: 84a8 29ce 1b57 42c0 79f6 20fb 973c 54c0
000004f0: 0575 f8cd 22a9 4140 ca32 c0eb 18bb 53c0
00000500: f8f3 2499 972c 2340 9bce fd43 36bf f8bf
00000510: e8bc efd9 dbfc 41c0 da7a 0218 8ab3 51c0
00000520: a32e 429e 8b85 42c0 75da 30a0 3b57 24c0
00000530: a2b6 801b 6dcc 17c0 8ccb 5c10 3f43 2140
00000540: acde 05c8 fcad 16c0 b1d1 a7b2 81e7 1e40
00000550: 4007 6812 d914 2d40 847f 0716 135d 0f40
00000560: 27f0 1848 c01e fc3f f765 7c34 ac6b 1640
00000570: c975 7fb4 1b03 07c0 e20d be35 0663 3640
00000580: f30a cd66 79c9 0fc0 060c 026f 046a 1e40
00000590: 38da fd94 f571 a8bf 2ba1 cadf 5c6b e2bf
000005a0: 6c76 4fe9 65c8 21c0 7150 f42f d6f0 0840
000005b0: f909 17ee 93a9 05c0 30d0 097e 275c 603f
000005c0: 6e1e 83be b9a8 16c0 20ba dd3e 1b18 13c0
000005d0: 534c 26d8 3ed6 d3bf 09bf 394f 4fc6 f13f
000005e0: 6dd9 7ae6 cf3e 03c0 65eb 5ed6 3ce3 f7bf
000005f0: 9c33 196f 5aba e13f 6cab 8491 2a0f 08c0
00000600: 192d ad2b 2758 ec3f 9093 aadd 40d5 0040
00000610: 6a30 09af 39a2 d23f a817 34df 3a7f 1240
00000620: 6653 e724 7e03 0040 e6ff ec94 1cdb f0bf
00000630: 2d7b fe18 f717 c03f 4593 5b14 1370 fe3f

models.1.layer.weight f8 [1, 200]
-15618.954899883274 -11310.169551559768 173.1873755614435 3012.5846122975017 2251.0574140468943 219.12080077317097 -1038.450989140509 -2693.7923147331335
728.1646092808325 -713.9798965697594 2648.0975043871786 3545.0239477075565 1375.5688572278953 367.16872290782214 -2285.3891642701774 373.54913284617527
3638.008596515276 2640.170465614522 -1953.013027257273 -421.1909931665554 -631.387699989689 599.849450739102 -119.76627328631038 319.2401448890652
-164.2641154004133 578.7701363477807 646.2917570829765 -1212.1399133456741 -428.1285697782558 -784.8780867018121 1566.3651515590302 -1350.4697158108645
3574.7188192210233 43.073409577326004 2894.792898667562 -247.91308039465974 -1109.2977739961993 -1412.0189772278638 -1330.689715520251 548.0059732814525
285.80973697427714 -309.1100000711446 1385.1810949288583 1512.2892824643425 -752.1118566897776 -20.693550705872124 3442.724089466603 76.67175557421945
-1814.0434294596675 359.9387528809367 -948.4901701383652 1076.1568251725646 696.6631453795742 -1189.2976213469944 3242.178381307635 -2461.046464161053
-1327.425040344181 -837.0319459136331 -1049.637776274774 -566.9827288923722 1146.5521244368474 1039.6523609657572 -1185.1277440593897 -464.2570372900093
321.25661912485856 158.1482736667912 -258.0502232627903 -132.74234429098436 78.51469951185749 504.81085602827324 -120.8522708472807 -393.13588316178505
-143.4601571210562 169.0936627475536 237.4472339251485 -384.17709034052706 71.60325707167009 -33.34084751704591 -47.98715217849818 74.86493421521234
8.578799819494558 415.19029220171797 -119.79664060091966 -270.79106937798525 -184.86975808925496 185.1956618427041 -21.97105447781168 -456.43629172831197
-155.11336897671953 -2.4417798025489756 113.08800262692776 111.33211342951932 218.22092098401615 97.52986731668216 -176.28987205777298 46.86262804733167
3.6165600509423053 98.45229537976581 -75.12012704370021 -70.08160867124091 71.11862690971596 -26.757020496169527 -9.436615424145815 -40.23783433757049
21.88900620147907 -23.507125141371187 -64.68619352748954 -41.99169185003118 75.45457725399784 -46.82628652940451 25.872552246533147 33.64789244859417
-26.404053977121947 34.809593854728725 36.56358437524772 4.42862182770336 -19.749499981111384 4.059759661999184 22.487391382904715 -12.135316009253216
0.4646401882023736 -9.87896691364125 7.4273534689257135 -13.909686863727776 -13.26523692819021 -2.610704403683856 3.4327327148373277 -0.25079461883908327
2.55232064072516 3.326522447457185 -1.150703570773811 1.5740186311513789 4.024927747239731 -2.1271052932744365 -1.29227282289004 -6.138250320722437
-7.123240088754661 -4.7033241527894925 -4.061252699116101 0.662253889483708 -3.670188359893664 -5.593823114530121 0.30223565005007436 -0.49398873211759936
1.5669935256383534 -1.6244129974349502 3.6589864614385528 3.3322397530582504 5.0913681042107495 1.8976876130915796 -5.490626548393057 -0.3583460627672161
0.17236580865536938 -3.3791826873004154 1.272582541603752 -3.591407208776608 -0.5349362825440458 2.306658675744781 2.8075024284074526 -0.8328203051514679
5.543996519122632 3.0005847857442207 1.7491476007617799 4.005559590541586 1.327600619164013 2.8985497652231405 -0.9502933112161148 -3.401255711194079
-1.2309696060283792 -1.0057950822578996 0.929340426671988 -0.20394945299972236 -0.2939185712862723 -1.985586587461056 0.22950188416949077 1.9539634823297294
0.5765881091370696 -1.7214647875920606 0.2529597143088387 2.0992882131035135 -0.6883069741765294 -0.37053039324613457 0.15144517890087497 -0.08426173027639595
0.9218096637432727 -0.8943087136365925 -0.7127167387992961 -0.1613083222160217 0.08676643895336647 0.9036821207990244 -0.5454587760041739 0.10831360819603542
-0.07159002971216981 0.2520446810034632 0.5370047712938927 0.32253863391557175 0.06104286137539131 -0.669375353914375 0.02425958618384436 -0.498595509987628
00000000: cfcc 283a 7a81 cec0 1892 ddb3 1517 c6c0
00000010: 068f 08fb fea5 6540 3895 4d52 2b89 a740
00000020: 7cbb 5f65 1d96 a140 3a43 9599 dd63 6b40
00000030: 59e5 18d0 cd39 90c0 e5d5 46aa 950b a5c0
00000040: 59ae ab1e 51c1 8640 a244 03d4 d64f 86c0
00000050: 4c54 18ec 31b0 a440 8ab9 df42 0cb2 ab40
00000060: 9d57 8282 467e 9540 eab2 ca16 b3f2 7640
00000070: 5e0a 8a40 c7da a1c0 b7f7 853f c958 7740
00000080: f12f c366 046c ac40 eede 4447 57a0 a440
00000090: c76f 0457 0d84 9ec0 d7c1 d94e 0e53 7ac0
000000a0: fec2 7302 1abb 83c0 0d40 d4ac cbbe 8240
000000b0: 1920 1c9f 0af1 5dc0 63cd 2aa2 d7f3 7340
000000c0: a4e4 23a2 7388 64c0 6fd9 3e3d 2916 8240
000000d0: 15ce bc84 5532 8440 c7af 7145 8ff0 92c0
000000e0: cd0d 2f9f 0ec2 7ac0 af1a 5252 0687 88c0
000000f0: 7950 4aea 7579 9840 4f78 2efd e019 95c0
00000100: 10ac 1209 70ed ab40 08ea 2a7c 6589 4540
00000110: 716c d0f6 959d a640 d635 60f4 37fd 6ec0
00000120: 1a9d aaeb 3055 91c0 2d34 c46e 1310 96c0
00000130: 160c c944 c2ca 94c0 e843 b83b 0c20 8140
00000140: 1eee c1ae f4dc 7140 fb41 6f8f c251 73c0
00000150: acf3 f270 b9a4 9540 a18e a939 28a1 9740
00000160: 78c3 1e15 e580 87c0 a7d6 ff89 8cb1 34c0
00000170: e0c4 dabb 72e5 aa40 688b 170b fe2a 5340
00000180: d2b3 c578 2c58 9cc0 62aa bd21 057f 7640
00000190: 094e 52de eba3 8dc0 6b2d c796 a0d0 9040
000001a0: 1e2e 2a1f 4ec5 8540 bb7f a6c3 3095 92c0
000001b0: 0575 cb54 5b54 a940 5188 26ca 173a a3c0
000001c0: f4a6 c63d b3bd 94c0 5cf2 db6c 4128 8ac0
000001d0: 4749 3915 8d66 90c0 952c f7a0 dcb7 81c0
000001e0: 54be 1b60 35ea 9140 7554 8304 9c3e 9040
000001f0: 59b5 56cf 8284 92c0 1427 22d3 1c04 7dc0
00000200: bbcc a71c 1b14 7440 3db7 6aa8 bec4 6340
00000210: ed72 e8b6 cd20 70c0 ce84 d048 c197 60c0
00000220: 7cac 38d6 f0a0 5340 2bb3 2b44 f98c 7f40
00000230: e919 069b 8b36 5ec0 1a7f d293 2c92 78c0
00000240: a73e 6d9b b9ee 61c0 14b3 0449 ff22 6540
00000250: 9645 85bd 4fae 6d40 0550 ae5c d502 78c0
00000260: d779 8cc3 9be6 5140 4751 35e4 a0ab 40c0
00000270: 9469 a900 5bfe 47c0 d2e1 0915 5bb7 5240
00000280: d551 2f73 5828 2140 00f1 d56f 0bf3 7940
00000290: 68e7 db28 fcf2 5dc0 0535 5d38 a8ec 70c0
000002a0: 0299 ea0e d51b 67c0 a8ef 9fdc 4226 6740
000002b0: e5d5 b806 97f8 35c0 d809 090d fb86 7cc0
000002c0: 86ec f9b7 a063 63c0 79d9 5fd9 c388 03c0
000002d0: 7a27 c5d5 a145 5c40 4496 af58 41d5 5b40
000002e0: 2f2b e2c8 1147 6b40 a017 9b58 e961 5840
000002f0: 1805 c4a1 4609 66c0 70f3 8998 6a6e 4740
00000300: d289 3609 b7ee 0c40 780e 5268 f29c 5840
00000310: af03 5729 b0c7 52c0 2f83 9313 3985 51c0
00000320: f569 5295 97c7 5140 2773 6118 ccc1 3ac0
00000330: 5945 8f0e 8cdf 22c0 94dd 065b 711e 44c0
00000340: 364b 11e9 95e3 3540 2b2b 09f4 d281 37c0
00000350: d8d2 4198 ea2b 50c0 fdcb 2fc2 effe 44c0
00000360: 47db 31cb 17dd 5240 7875 cac1 c369 47c0
00000370: 44e9 8295 5fdf 3940 c704 c723 eed2 4040
00000380: b88e d914 7067 3ac0 1d8d 7cc5 a067 4140
00000390: df1c 6688 2348 4240 c859 f1a3 e8b6 1140
000003a0: dc39 133b dfbf 33c0 44a0 07a3 313d 1040
000003b0: 8fed 81ae c57c 3640 50bc d423 4845 28c0
000003c0: 7c22 2f33 aabc dd3f e0b5 88f3 07c2 23c0
000003d0: ed78 d325 9cb5 1d40 8b9f 027a c2d1 2bc0
000003e0: 7389 7822 cd87 2ac0 43c3 8afd b8e2 04c0
000003f0: be15 d191 3c76 0b40 344e 7bdf 040d d0bf
00000400: 0890 8615 276b 0440 6ce8 09cd b79c 0a40
00000410: b2d2 bd25 4869 f2bf 1070 0129 2e2f f93f
00000420: 62a1 cca8 8619 1040 f918 aec7 4f04 01c0
00000430: 3b28 7d44 26ad f4bf 53a8 f87d 918d 18c0
00000440: 9607 5ba6 327e 1cc0 01df ea34 34d0 12c0
00000450: 45fb 0d07 b93e 10c0 0267 9f11 2f31 e53f
00000460: af39 ffb6 8b5c 0dc0 1c10 a22a 1360 16c0
00000470: aa9f 2932 d457 d33f f167 42ea 829d dfbf
00000480: 4491 9acd 6712 f93f 18e3 b27b 98fd f9bf
00000490: 3215 a3b1 9a45 0d40 c987 ce50 6da8 0a40
000004a0: 46ee ad99 8f5d 1440 cc0a c4af ed5c fe3f
000004b0: 1597 4fce 66f6 15c0 5b13 0f53 24ef d6bf
000004c0: becb 8f33 1510 c63f 4351 c9ee 9008 0bc0
000004d0: f860 da82 7f5c f43f 6e83 e2b3 33bb 0cc0
000004e0: 460e dfb1 321e e1bf 37de ba76 0974 0240
000004f0: cf9a 4bd5 c375 0640 db3f c2c4 76a6 eabf
00000500: 0314 6b6c 0d2d 1640 3a2c 9d98 3201 0840
00000510: 1d61 d231 82fc fb3f 9738 ce69 b105 1040
00000520: 3157 9725 da3d f53f e7b1 fbdb 3a30 0740
00000530: 03fc a884 cd68 eebf 594b e78d c535 0bc0
00000540: b730 842f 0db2 f3bf aa67 8c95 bc17 f0bf
00000550: 1e05 6d22 28bd ed3f f1df 5503 041b cabf
00000560: 3224 d7d6 8fcf d2bf fb57 0871 f6c4 ffbf
00000570: 8b6d 7057 5160 cd3f 8ef3 6236 6f43 ff3f
00000580: bb32 00e8 6873 e23f 9ac6 3ea9 1e8b fbbf
00000590: a45d 0af1 7d30 d03f 5143 619e 57cb 0040
000005a0: 174d f658 9c06 e6bf 7ca2 4a1c c5b6 d7bf
000005b0: 7510 423d 8e62 c33f 216c d73f 2d92 b5bf
000005c0: 6a40 ddfa 767f ed3f 931a b34e 2d9e ecbf
000005d0: 528d 8e55 93ce e6bf dac6 3e48 c0a5 c4bf
000005e0: 62f1 b149 5336 b63f b4f9 59c4 f6ea ec3f
000005f0: b921 88f6 6574 e1bf 30ea e9cc 70ba bb3f
00000600: 2b5c 5564 b953 b2bf a299 8203 8021 d03f
00000610: 731a 50a1 242f e13f 174a 1715 79a4 d43f
00000620: 25ec 858a 0241 af3f faf0 b9dc 856b e5bf
00000630: f9ae 1845 81d7 983f 5013 5524 fde8 dfbf

models.2.layer.weight f8 [1, 200]
-364.5420383747594 171.44609674632764 -390.25435042916473 219.50761245983605 -398.5345711409674 258.8476051039651 234.68299421111487 -177.42268840899163
-169.06967087972936 51.782789682150636 112.05677373197149 -623.8872714834581 208.2866124847484 437.9312867454525 -91.30931669444777 129.31787790520193
497.0040471778946 312.71076968625283 25.481996562191167 54.495855530184144 -252.15831258700618 -169.6746855682894 -321.9998935944413 -510.8156521127107
142.0382202031665 -112.82710624133553 -40.061391744141936 141.68250607180795 44.83682691070421 120.84077341947557 -83.27441388757931 7.740458456949932
91.8197164728473 17.79183083415062 63.946480432983165 147.10444190352334 76.49662383248157 -45.19898894416826 -34.398009889481784 58.99838563689349
9.174306619668576 -163.2931190893889 -107.56070799354232 -220.48471531205365 -174.36013042866364 165.64117762194715 228.13154742745664 -119.29148667787464
142.7912191129716 -27.618994473181683 -532.6441092950645 237.72819285969314 134.9922658969492 -430.5187152385695 -41.34561986615692 138.9025440206201
-564.0396628031165 -309.30038532831196 -233.0778368308654 179.2643467648628 234.51215958152562 710.1094386436507 80.46364774292203 -356.46599721330944
-385.3884801181922 -167.85686632305524 -219.20154520322322 -244.8921055125257 36.8898495129691 -327.54429915930405 -478.5625375648637 -34.657087562237635
241.754496911025 255.5620012304579 277.9213611419353 241.03275765089026 34.47032733347862 205.63629483983465 491.5031802698221 -165.2934240819678
719.4291430996325 -99.85239773887328 291.2862299139291 -84.48961814627162 705.3714793299134 103.38792899955372 -171.423031392169 -783.6176067568401
184.7410563731044 -430.87823066847017 -40.51135263129817 269.76481973547175 479.68096612660787 429.127353901177 -176.49530304724354 -617.7787482985965
413.38876497068463 352.8033609165756 -309.76422865841215 -204.84054803191444 125.37932608145363 514.3653957014704 -868.375228423973 -302.2430721506739
-94.6515575356982 -485.9330431931659 200.91591495199418 357.2141290580675 -434.23450712105677 -661.6874649933192 -251.96398094064108 -40.75361155669903
482.30830357681697 -312.0129583802425 -236.1827983408117 -89.67672844972122 356.76062172232236 -711.4980937768902 689.7130649353301 928.8926719752377
-329.51205419049745 -646.6863715232555 -191.50667071507914 -1321.7328126591449 -278.3103900673954 -25.742580698455765 389.20948681987846 -356.12122637788025
-569.7008554129526 469.33643054552675 51.91281894084145 223.6692429119008 238.64577874901704 83.48960864653299 340.7685217816493 313.37368236318486
-410.7702120891053 -238.6310167474412 127.64485417779993 56.99620207769794 98.88762901641525 183.83514558974417 122.54585582837252 350.9158229254166
-234.1906805791731 -111.60026963617268 215.59814083838825 -132.5240091660444 -167.48516325756378 -293.0294556420101 -194.96380548451125 220.13696663457634
-38.16377364675348 -135.4739151552518 173.76678202613397 -48.41094484932161 -86.70366777650963 -117.08947006401618 21.068462938359872 199.45698613743366
129.49060224537783 -48.706565930725155 112.26688211024887 20.30265647905191 -65.9942634028863 94.69265139830596 -8.966468344948028 19.433840086406107
-51.106581312100325 9.928990974256774 157.3612880776473 45.97175380516953 -73.9733851476122 -250.52891571284306 9.838892778656966 -97.69849072307767
-39.725314178813136 -17.852227143136158 27.72226049959281 53.13343714633712 40.803187979720335 59.11744848854876 156.68054051132322 63.27965523294486
-2.040989856468133 -72.93329288929573 -47.679335469671656 108.64045491400276 -69.32907888473717 -6.152060070968565 -129.2215084816879 21.162551784213655
-103.84118610918193 -42.845920710955426 -4.3769129988899245 47.852933430768154 75.59224715756628 -14.368380326899025 -16.111542198092497 46.21579859588448
00000000: 4c4c 6e30 acc8 76c0 890a af6c 466e 6540
00000010: c76f c1d1 1164 78c0 3741 7c5c 3e70 6b40
00000020: 72fd 779a 8de8 78c0 3f97 5eca 8f2d 7040
00000030: 1003 ad16 db55 6d40 8ea0 d7a9 862d 66c0
00000040: 7abd 6cbe 3a22 65c0 da3d ca73 32e4 4940
00000050: b985 4a2e a203 5c40 02a1 ca21 197f 83c0
00000060: d413 f2ed 2b09 6a40 ab2e ee8c e65e 7b40
00000070: a4b0 3fd8 cbd3 56c0 d3de 480e 2c2a 6040
00000080: 2d0b c693 1010 7f40 1bd7 0850 5f8b 7340
00000090: 3f65 6f20 647b 3940 40d7 aa31 783f 4b40
000000a0: 93f7 8ee5 1085 6fc0 5b5c 3006 9735 65c0
000000b0: aff9 6c90 ff1f 74c0 18d0 3ae9 0ced 7fc0
000000c0: b154 9319 39c1 6140 a136 044f ef34 5cc0
000000d0: c1aa 46af db07 44c0 9237 f916 d7b5 6140
000000e0: 93f1 ea24 1d6b 4640 98ff 503b cf35 5e40
000000f0: 2b2e 44ff 8fd1 54c0 1a96 e2bd 3af6 1e40
00000100: c9b7 143c 76f4 5640 2da4 f06c b5ca 3140
00000110: bafb 5445 26f9 4f40 dffe 8b96 5763 6240
00000120: 0bbb 53af c81f 5340 f0bb 3f78 7899 46c0
00000130: 8867 f1fc f132 41c0 78a0 bd19 cb7f 4d40
00000140: dbe7 9db7 3e59 2240 47d8 483b 6169 64c0
00000150: afb7 c7a3 e2e3 5ac0 82a4 afc9 828f 6bc0
00000160: f4ac 3f30 86cb 65c0 15a6 ee86 84b4 6440
00000170: 9359 f3a2 3584 6c40 3e2c bdb7 a7d2 5dc0
00000180: dcc5 beaa 51d9 6140 57b8 fa6b 769e 3bc0
00000190: d02a c622 27a5 80c0 02b2 1c5b 4db7 6d40
000001a0: a70a 69a4 c0df 6040 7c99 59a8 4ce8 7ac0
000001b0: f6fe 9245 3dac 44c0 7078 ffa3 e15c 6140
000001c0: 0652 bb3a 51a0 81c0 c594 d860 ce54 73c0
000001d0: b85f aaa3 7d22 6dc0 74bc 5887 7568 6640
000001e0: 8a9f 7d9c 6350 6d40 301b 5e21 e030 8640
000001f0: b82d 9567 ac1d 5440 0f73 7eb9 7447 76c0
00000200: 82ac ed36 3716 78c0 1d52 ec72 6bfb 64c0
00000210: 4d10 ed0e 7366 6bc0 221c dc20 8c9c 6ec0
00000220: 2b48 be96 e671 4240 3807 0973 b578 74c0
00000230: c7bd 6327 00e9 7dc0 a235 fb71 1b54 41c0
00000240: 22b9 b4d6 2438 6e40 1c24 01ea fbf1 6f40
00000250: ad46 2ee5 bd5e 7140 8fe8 c559 0c21 6e40
00000260: 50da a1af 333c 4140 82f6 fe86 5cb4 6940
00000270: 0e2e c106 0db8 7e40 237d e6ba 63a9 64c0
00000280: ced1 93e2 6e7b 8640 49e9 3eaf 8df6 58c0
00000290: 6677 d165 9434 7240 f270 59e7 551f 55c0
000002a0: f2a8 27ca f80a 8640 3590 27d4 d3d8 5940
000002b0: 8351 2179 896d 65c0 56b3 cfdb f07c 88c0
000002c0: 3adf dabb b617 6740 c7f6 993b 0dee 7ac0
000002d0: 1913 c600 7441 44c0 fc72 9eb3 3cdc 7040
000002e0: 6fb7 bc3c e5fa 7d40 2c89 3ea4 09d2 7a40
000002f0: a5b0 c685 d90f 66c0 4d52 63e0 3a4e 83c0
00000300: bc2e 9e61 38d6 7940 3bf9 f990 da0c 7640
00000310: bd68 d447 3a5c 73c0 4579 fcc4 e59a 69c0
00000320: 3e97 e6e0 4658 5f40 51df 9454 ec12 8040
00000330: f38b c277 0023 8bc0 689b 9f9f e3e3 72c0
00000340: 50d2 601e b3a9 57c0 7206 b3be ed5e 7ec0
00000350: 7097 df2c 4f1d 6940 5f58 9712 6d53 7640
00000360: e3f9 898a c023 7bc0 9b7b a5ed 7fad 84c0
00000370: aac0 8eee d87e 6fc0 7af4 ee57 7660 44c0
00000380: b33a bbcf ee24 7e40 9cb5 d813 3580 73c0
00000390: 94f1 e77b d985 6dc0 d4f4 d784 4f6b 56c0
000003a0: 07e0 ae81 2b4c 7640 ad10 9718 fc3b 86c0
000003b0: 5689 635b b48d 8540 9d5d 3431 2407 8d40
000003c0: 761f bc5f 3198 74c0 4e6a 5ab0 7d35 84c0
000003d0: 63e3 80a5 36f0 67c0 7d14 7166 eea6 94c0
000003e0: 7747 935b f764 71c0 2382 c6c4 19be 39c0
000003f0: 2305 da0e 5a53 7840 8806 128b f041 76c0
00000400: d92e 155a 9bcd 81c0 9be6 fe04 6255 7d40
00000410: ac0a 4540 d7f4 4940 3376 1c70 6af5 6b40
00000420: 5cef 3138 aad4 6d40 ac2c 81bf 55df 5440
00000430: 29e7 7edd 4b4c 7540 898f 5b9a fa95 7340
00000440: 0f5b e9c9 52ac 79c0 a0af 084a 31d4 6dc0
00000450: bd15 754a 45e9 5f40 bff5 b78c 837f 4c40
00000460: fc1e efe9 ceb8 5840 326b 3e83 b9fa 6640
00000470: 39cc 484d efa2 5e40 7699 f035 a7ee 7540
00000480: fc70 280e 1a46 6dc0 2f09 56d1 6ae6 5bc0
00000490: f268 41f8 23f3 6a40 e1de deae c490 60c0
000004a0: a28e 1875 86ef 64c0 dbb1 7aa6 7850 72c0
000004b0: cd75 997e d75e 68c0 c104 da07 6284 6b40
000004c0: 5d60 ec88 f614 43c0 549c 1d50 2aef 60c0
000004d0: feac 757a 89b8 6540 e225 40d7 9934 48c0
000004e0: e8d6 91e4 08ad 55c0 eaba a5e0 b945 5dc0
000004f0: 643e 81c9 8611 3540 1860 64a1 9fee 6840
00000500: bee7 7a03 b32f 6040 5777 9ec0 705a 48c0
00000510: 02da b398 1411 5c40 5273 1fe5 7a4d 3440
00000520: 68c0 f702 a27f 50c0 2dd0 8766 54ac 5740
00000530: 9157 5cf0 d4ee 21c0 dcce d624 106f 3340
00000540: f7ea d874 a48d 49c0 8e6c 79b4 a4db 2340
00000550: c1bd 03ac 8fab 6340 bc7b be6d 62fc 4640
00000560: 05da 37f1 4b7e 52c0 0c20 a5e0 ec50 6fc0
00000570: 4e5d b25a 83ad 2340 640b 6f12 b46c 58c0
00000580: eca9 5218 d7dc 43c0 8788 dc8e 2bda 31c0
00000590: 99f1 6810 e6b8 3b40 75cb e977 1491 4a40
000005a0: 36b8 1cdd ce66 4440 0aa4 548d 088f 4d40
000005b0: 90f7 e4fc c695 6340 a4d3 1fbe cba3 4f40
000005c0: a7fc 677d f253 00c0 5447 1912 bb3b 52c0
000005d0: 54a0 f476 f4d6 47c0 148d 9b36 fd28 5b40
000005e0: 05f0 e1a0 0f55 51c0 8659 9fa2 b59b 18c0
000005f0: 5b94 f498 1627 60c0 a61a 65fe 9c29 3540
00000600: 4c32 43fe d5f5 59c0 0448 3e21 476c 45c0
00000610: 94ad 2e7b f581 11c0 3b68 33ec 2ced 4740
00000620: 5a39 9f60 e7e5 5240 ce0a a158 9cbc 2cc0
00000630: 65ee 8c07 8e1c 30c0 5cec d349 9f1b 4740

models.3.layer.weight f8 [1, 200]
-3891.8772867827815 -2436.241848290616 -2719.0474173130974 3798.4802084373437 3750.6699144615977 1615.3733456329405 -2689.697117943304 4062.4432948990425
2663.116589434537 -3245.2510471379182 -1493.1960584261833 -3443.6946563046968 -736.2943780546025 2298.1883749942103 1755.648004151991 -851.2137772131643
166.78784413313664 -80.22915417394721 1788.3340756292826 -2203.736157614589 1559.4439597545477 -227.86902328412629 576.9122791399684 2074.371851122332
1459.0381108397642 787.9340379132423 -219.5628178855471 -3566.9125439236554 237.78371404369466 -1485.0221251791834 2730.6312908758246 -4714.626103098959
5468.874527003398 -479.3727752207665 4609.763191377011 2375.2758041242087 -2443.382163316319 -4084.4553608650576 2248.6223414577594 -3207.6953838519853
-3040.0254000114796 3478.9664855409305 3754.3735627532537 2142.3687017773773 -2101.6373580262575 7248.915338745157 -1953.5591356758605 1561.0481082509145
2136.8209956577516 10034.635248545397 -8475.21367866584 3966.7926297501267 -7980.21102204257 -5443.432321161592 2868.420666582191 -9624.346595564126
-5003.010012404462 -6262.878231446435 1931.403017450992 7404.241093993227 -4012.680381199878 1455.75819478742 2951.0513690330845 -9627.767073135752
-2073.11500491973 221.83031185847548 -2559.175234997598 2745.5377596200556 15257.428160865868 352.978696478509 -4822.749034849566 412.5503869247236
2509.0044886157234 -8032.885001183085 -566.4591730563301 4056.3335904116357 604.8875416258926 -1578.5600369157487 986.2637920045167 1387.4113468472146
47.853153269182414 -833.8788484698674 1074.6501267600258 -2366.1597924529697 -5187.4155248592615 -1030.2475536401862 -646.1323899255748 282.4674466059463
-938.5568814865748 -2588.7431087827363 -808.5957045384229 2810.2069262862165 3069.865827087235 1698.408233113393 -1366.9234909603108 -889.27398710017
-611.662919508646 198.91516765983957 -413.53797253742334 1172.5190173528542 1087.1231227294336 -482.41664420594316 488.27524118186693 -458.56175115093754
-957.5885708640814 -116.34707466812378 248.97783020756677 -899.3871553812048 969.9393968182362 -387.3886952205387 343.1070777324137 1503.0900043793172
-903.9868730717077 118.88772093821997 1242.3577580475276 -203.1841407793962 -103.521266331422 -345.723081853682 182.17608659237138 -180.49464382653642
-155.4380438176359 67.92727150080555 86.73381139455932 -95.8852962074103 -636.8301955341361 -261.47197153630236 54.61307198832061 -16.53810566722567
195.5627286551617 34.5980526809277 30.3400363908852 73.28247765742472 48.431912626094956 30.4465991891641 -38.87587997449536 54.54249764220725
-89.2628696943889 13.025565755133726 36.08353103242438 68.988260825395 -22.532353302118565 5.407048838209065 43.06244430559467 6.430898861406464
-5.619541967637909 22.229410216932383 -101.98131904965666 45.34574373508324 31.341922017237938 63.433449553337724 21.317660524158647 -25.495871024870503
-13.417476720721675 17.779731498685972 0.5503893449586333 -6.6406633774276855 -27.27899123901473 -60.37914454177833 23.420789965947076 -50.04940799082537
7.290816866340258 -9.46504200945706 -25.250627565565665 -55.79928824921618 -31.189708941625007 -15.510268823007765 -0.6342644101326376 11.329891068277561
1.057272688966918 7.089248910860481 12.764170096600903 4.083765540636835 4.658024340485554 6.609830320917833 -3.523532399050791 14.823783374865489
-3.3611120053568198 5.902255103569014 3.3698388626631623 -4.890494319358549 -5.560432224600746 2.964270788803314 -2.292799162142544 0.46742563034422
-5.889338788064445 -1.5540348932181962 0.2792744500592017 1.315481123049207 -2.864947849411416 -3.0615273995760623 1.0575605462371853 -2.6822331966133146
0.12141564166449881 0.6034902917880941 -1.082377867067407 2.518971749607726 1.6418926972998278 -0.19897747872029395 -0.3060740360487572 1.929507934934623
00000000: 85b2 bb2b c167 aec0 9405 8ad3 7b08 a3c0
00000010: 0902 1547 183e a5c0 4f5b e1dd f5ac ad40
00000020: 5c3f 07ff 564d ad40 564e 514e 7e3d 9940
00000030: e49f a4ec 6403 a5c0 be8b 8cf7 e2bc af40
00000040: cb40 9cb1 3bce a440 3a1e 4089 805a a9c0
00000050: 4042 8ac3 c854 97c0 44bd fda9 63e7 aac0
00000060: 6ca9 e1e2 5a02 87c0 09ef af72 60f4 a140
00000070: e581 668e 976e 9b40 5ed9 d3d0 b599 8ac0
00000080: 5b45 e604 36d9 6440 17b6 4476 aa0e 54c0
00000090: a3f8 eb17 56f1 9b40 b99e a6e9 7837 a1c0
000000a0: 17ca 629d c65d 9840 1e19 eb09 cf7b 6cc0
000000b0: e677 0159 4c07 8240 cb32 4563 be34 a040
000000c0: a429 8706 27cc 9640 cc94 dee8 789f 8840
000000d0: eb80 a79a 0272 6bc0 8708 f538 d3dd abc0
000000e0: b462 792f 14b9 6d40 0ba4 fba7 1634 97c0
000000f0: dcc3 8e38 4355 a540 f4ed 4a48 a06a b2c0
00000100: 106f 00e1 df5c b540 395f 26e3 f6f5 7dc0
00000110: da94 8260 c301 b240 28bb 3236 8d8e a240
00000120: a402 e9aa c316 a3c0 9a2e 0f25 e9e8 afc0
00000130: 0b20 8aa3 3e91 a140 e32c 5a09 640f a9c0
00000140: 3ff5 3a01 0dc0 a7c0 b55c 31d7 ee2d ab40
00000150: 7500 9e43 bf54 ad40 a0b7 7ac6 bcbc a040
00000160: 3d8d ca53 466b a0c0 36d7 a353 ea50 bc40
00000170: 6407 108e 3c86 9ec0 6211 4a43 3164 9840
00000180: 67f8 8a59 a4b1 a040 a807 d34f 5199 c340
00000190: d190 d259 9b8d c0c0 430d 91d3 95fd ae40
000001a0: 9363 8a05 362c bfc0 6882 99ac 6e43 b5c0
000001b0: 103a 9c61 d768 a640 6e52 3e5d 2ccc c2c0
000001c0: b845 2c90 028b b3c0 c2ac c6d3 e076 b8c0
000001d0: e94e 9bb0 9c2d 9e40 2c00 56b8 3dec bc40
000001e0: 94b4 ec5a 5c59 afc0 dedf 3664 08bf 9640
000001f0: 40ba 0a4d 1a0e a740 d9d7 732f e2cd c2c0
00000200: 3dc2 ece1 3a32 a0c0 43b4 2cea 91ba 6b40
00000210: 99cf 66b8 59fe a3c0 7f9a 3a55 1373 a540
00000220: 2aaa f9cd b6cc cd40 817e a3bd a80f 7640
00000230: 7376 bfc0 bfd6 b2c0 581d 8562 cec8 7940
00000240: 79f3 544c 029a a340 4502 708f e260 bfc0
00000250: 2361 ec62 acb3 81c0 78c8 5ccc aab0 af40
00000260: 6188 6caf 19e7 8240 c636 517a 3daa 98c0
00000270: c482 fb3e 1cd2 8e40 66a0 1b38 a5ad 9540
00000280: 96ce 5620 34ed 4740 c3e1 b4e1 070f 8ac0
00000290: 4352 d4ba 99ca 9040 4eff 50d0 517c a2c0
000002a0: 3451 d65f 6a43 b4c0 6c92 b37e fd18 90c0
000002b0: 4f05 7322 0f31 84c0 a6d2 4aa9 7aa7 7140
000002c0: b1e4 477e 7454 8dc0 721e c178 7c39 a4c0
000002d0: d7b4 bd00 c444 89c0 f7ff 3df2 69f4 a540
000002e0: 551f b04d bbfb a740 ab7c dc07 a289 9a40
000002f0: bf42 9da7 b15b 95c0 0c16 2620 31ca 8bc0
00000300: 1f4c bea8 4d1d 83c0 c52b b00d 49dd 6840
00000310: 1266 1789 9bd8 79c0 43f2 4879 1352 9240
00000320: 3f81 e213 7efc 9040 8069 1d93 aa26 7ec0
00000330: 182a 4c63 6784 7e40 465c c6ee fca8 7cc0
00000340: dd24 a464 b5ec 8dc0 2637 ab78 3616 5dc0
00000350: 4951 9362 4a1f 6f40 f6a5 ebe4 181b 8cc0
00000360: 54a2 7ae2 834f 8e40 34c5 7a18 3836 78c0
00000370: 8ced 2397 b671 7540 a8a6 1b2a 5c7c 9740
00000380: 4d82 b51d e53f 8cc0 4568 7b6b d0b8 5d40
00000390: 0c28 2058 6e69 9340 bb2b 347b e465 69c0
000003a0: a87d 756d 5ce1 59c0 531e 47be 919b 75c0
000003b0: f96f 5980 a2c5 6640 8d44 4a1f d48f 66c0
000003c0: c2de 7774 046e 63c0 409e 906a 58fb 5040
000003d0: 2044 11c4 f6ae 5540 6886 6cb1 a8f8 57c0
000003e0: 3363 8e3d a4e6 83c0 fc90 0632 8d57 70c0
000003f0: 22f7 9524 794e 4b40 c986 024b c189 30c0
00000400: 214e 86df 0172 6840 4fef 80fd 8c4c 4140
00000410: 434d fa9f 0c57 3e40 5a1f 2b1d 1452 5240
00000420: 56e7 b5e9 4837 4840 43e1 0f53 5472 3e40
00000430: e6d6 c2d5 1c70 43c0 f8b7 0f90 7045 4b40
00000440: a120 69db d250 56c0 d064 64f4 160d 2a40
00000450: 5f3b 1625 b10a 4240 543f 55aa 3f3f 5140
00000460: 5084 564e 4888 36c0 51ee 1f69 d1a0 1540
00000470: de2c cd2c fe87 4540 637f 168d 3db9 1940
00000480: 6a04 a635 697a 16c0 c517 c3a0 ba3a 3640
00000490: e64d 6aee cd7e 59c0 5d7d a954 41ac 4640
000004a0: bdd1 8933 8857 3f40 9206 6446 7bb7 4f40
000004b0: da7d 3a33 5251 3540 52da 4a67 f17e 39c0
000004c0: 8dae 3c82 bfd5 2ac0 6f84 c67b 9cc7 3140
000004d0: 1141 951d ca9c e13f f02f 770f 0a90 1ac0
000004e0: 5470 47f8 6b47 3bc0 8ab2 efce 8730 4ec0
000004f0: 473a 26e4 b86b 3740 c660 4400 5306 49c0
00000500: f839 88e5 cb29 1d40 b5c4 7bfc 19ee 22c0
00000510: a494 cd20 2940 39c0 f53a cd13 4fe6 4bc0
00000520: c609 e4c3 9030 3fc0 39f9 85f4 4105 2fc0
00000530: 442a 51e0 e44b e4bf 40fd 6a7b e7a8 2640
00000540: fe11 61c4 96ea f03f c565 0511 645b 1c40
00000550: cef6 8a4d 4187 2940 9344 46a2 c655 1040
00000560: 006e f921 d1a1 1240 1cce 115c 7770 1a40
00000570: 7a8e 22c1 3130 0cc0 5212 3cef c6a5 2d40
00000580: a99a e9b0 8ee3 0ac0 7be9 09c3 e89b 1740
00000590: c96c df13 6ef5 0a40 ccac 2bbe dd8f 13c0
000005a0: 9023 f1f1 e13d 16c0 d62f 739a d3b6 0740
000005b0: 6196 4d16 a757 02c0 c2ff e830 4dea dd3f
000005c0: 4b34 c7d3 ae8e 17c0 a970 33b1 53dd f8bf
000005d0: c435 67f1 a1df d13f f206 20ef 350c f53f
000005e0: 92bd 2fc7 69eb 06c0 9be5 c713 027e 08c0
000005f0: c60e 7a9b c4eb f03f 0999 9dad 3675 05c0
00000600: 2800 2c72 1815 bf3f 19de 55df ca4f e33f
00000610: fe7f 4f74 6b51 f1bf 99e7 20a9 da26 0440
00000620: 931a e746 3145 fa3f e541 df11 1878 c9bf
00000630: 1bfc be8d b796 d3bf cfaa 5eb6 43df fe3f

models.4.layer.weight f8 [1, 200]
574.947134638709 2002.270205492586 2950.9739435622873 -107.65713770973422 751.4854574696695 -79.67416496280322 -781.4820318973489 137.59699013942378
409.30267858196703 -369.7141824397278 964.1121510120591 -76.58452541392873 101.66830949134375 1655.293051599238 -483.7647247073472 -1597.830436369444
2141.5587640833664 1190.0831184443111 851.9223536045625 753.4425750348377 345.25840458678005 460.12201274506805 -427.6270808796971 -781.2801867154984
-71.99276472156777 1649.5997975345763 -193.22620426360683 -187.06250108948953 -126.09518109803017 434.97144293211227 378.1352169782968 753.2664162298961
-302.37236100302084 -451.4056190154919 194.87520078428264 192.7955344170228 -853.4878555899551 -711.220947964865 -704.2628486439634 -1805.6410828212677
623.4272978005793 1446.0130408158393 -1000.8292008996141 -381.023456237803 295.94829695882004 -462.6069382400096 -481.0546730974647 -291.2478499053988
1611.3399077950608 218.8795321969115 -600.3750532620966 557.7947304284154 506.1341813518055 -575.4818795784037 1112.4973743913229 775.1938254319532
212.54978950585968 -1165.958973034411 -133.13659493459647 -308.03363142513945 -450.01428830883685 18.156815079482524 1770.3143636602015 403.57531771726934
-807.6865067443797 41.98381260151562 320.7602062252252 -686.3519536549725 -2479.857427550641 -1493.69050283078 492.54557679029654 -703.7897837142594
1361.1597775712162 -435.8997787626868 252.7832220218033 -249.2063314557271 -705.8191265726355 337.00825840091215 572.1711029092354 625.1260018621657
905.0590786095793 -2991.986975849333 754.8914189693241 1358.3377939667002 -809.823126483671 764.5223323858413 395.9111816472748 -1.1502352504294708
-20.78737603082778 -365.08027549529726 -861.8121137764217 -2249.7569323099196 2020.3205655574109 -2993.3062937185737 -1234.603623671796 2097.969120525492
10.758318861431265 -352.34576342264666 1283.0967179882036 1044.8363948995482 1427.122934706585 -1835.5918655335608 2323.756412580507 714.7556770315283
242.58314039990444 -752.3431123456276 -140.64070911259296 -3486.8990986757235 1315.7877182067489 2344.933231998253 529.8198491150487 -1082.1857924050555
-1847.8538269932478 1846.4047653068453 -1097.696271979836 2037.570806126105 1101.436710948528 5503.862377747152 -638.6088623530617 -2669.1650676159074
-1595.315523787049 -71.99785039506952 1322.2254170372453 5669.44825253952 1421.4441541893011 2023.337197387597 -3857.013895840795 1459.4018711693818
1376.3290673817971 -921.2193922543116 -110.0519452221535 -1023.5296614882197 474.8601015329573 2333.7458775940495 505.36248486049004 -385.46189164609297
-1441.5549302265572 1100.8974992534695 -1542.092477047321 370.21484112904017 1232.178245359936 259.34624990095847 -139.44252864665862 703.9343183410194
1377.9752479312745 2116.4118843962365 587.0928564678541 -371.0810784742344 1388.0907905495662 671.9147303627818 1153.623217727675 -1185.0601338913673
1935.3316428115318 833.5079879116511 -1669.3545353343234 -912.5602963217071 -875.0366342056252 116.83613204031961 -996.7580388442043 2094.1991739429645
132.5073277326345 -780.8323402741912 680.8064891020894 435.81014238613176 16.751015967930478 424.2921773437568 1187.8212893459308 -481.97356202045603
389.25736311698 -501.6938795510796 383.0140052142126 689.0314093951506 -362.63584656727886 313.1053303581558 -140.9148637023389 577.3413837739968
86.87523755140238 -200.63199518809498 -86.65963155752338 195.44332741884688 121.23776494554137 5.876928297653037 -613.3148973435451 -251.63018776905807
-82.39165104412228 20.000539022507795 -650.8462133209853 -362.6024863444714 42.026097280728315 -822.2372719535597 -267.29651880145457 31.842815450829107
-146.2480012050968 19.38279702581112 48.373295711315095 -364.50758622365123 -334.02105855561797 -52.16449340971081 121.20523636770334 -97.12306020877843
00000000: 5051 53bb 93f7 8140 6da7 bfb0 1449 9f40
00000010: 5908 bba8 f20d a740 b711 538b 0eea 5ac0
00000020: a39e 8637 e27b 8740 54d6 cc84 25eb 53c0
00000030: f015 8a33 db6b 88c0 829b 108b 1a33 6140
00000040: f82b 7fc5 d794 7940 22e0 904a 6d1b 77c0
00000050: 0f08 6eaf e520 8e40 4e20 48dd 6825 53c0
00000060: 613b 2c95 c56a 5940 12eb b715 2cdd 9940
00000070: fe87 f94f 3c3c 7ec0 af60 e95d 52f7 98c0
00000080: 7a70 5316 1ebb a040 0b60 001d 5598 9240
00000090: 8d37 edfa 609f 8a40 3ba5 c764 8a8b 8740
000000a0: b515 d96c 2294 7540 33dc a2c3 f3c1 7c40
000000b0: efe3 f585 08ba 7ac0 b75e 88d2 3d6a 88c0
000000c0: 64f0 0a75 89ff 51c0 e82c 5331 66c6 9940
000000d0: 074d b910 3d27 68c0 4dea 4802 0062 67c0
000000e0: 2acf 7572 1786 5fc0 a475 be07 8b2f 7b40
000000f0: 613a 47d9 29a2 7740 3814 d59e 218a 8740
00000100: 7ca4 cf30 f5e5 72c0 c662 5d6a 7d36 7cc0
00000110: ae3d 13a5 015c 6840 92fe 9704 7519 6840
00000120: 39e0 d420 e7ab 8ac0 b4d9 5d80 c439 86c0
00000130: f7cc 6350 1a02 86c0 7ddd 0378 9036 9cc0
00000140: 20f9 1b1b 6b7b 8340 2c56 925a 0d98 9640
00000150: 40cd 1434 a246 8fc0 04e4 a513 60d0 77c0
00000160: 7490 6e39 2c7f 7240 8738 df04 b6e9 7cc0
00000170: 4fd9 e5f0 df10 7ec0 1360 7631 f733 72c0
00000180: c4fd c910 5c2d 9940 72b0 b420 255c 6b40
00000190: b4b7 ec1b 00c3 82c0 7179 a09b 5b6e 8140
000001a0: ce5b 589b 25a2 7f40 d52e aee3 dafb 81c0
000001b0: 6662 b64f fd61 9140 fa1a 59f4 8c39 8840
000001c0: 3e6b 29e0 9791 6a40 2af2 06fd d537 92c0
000001d0: 841c 57fc 5ea4 60c0 78f1 1ac1 8940 73c0
000001e0: b6b2 6086 3a20 7cc0 a7e5 7508 2528 3240
000001f0: 771e 8ce8 41a9 9b40 b3c7 5980 3439 7940
00000200: c17c 3ff7 7d3d 89c0 7e73 4292 edfd 4440
00000210: edb8 00ce 290c 7440 84ee 13cd d072 85c0
00000220: 6371 be00 b75f a3c0 fb8f 2c13 c356 97c0
00000230: 7c7c baae bac8 7e40 43bd 1f7a 51fe 85c0
00000240: 084c bb9c a344 9540 0176 6a7e 653e 7bc0
00000250: df24 a127 1099 6f40 7dcf 6c44 9a26 6fc0
00000260: 0886 3b92 8d0e 86c0 5c9d 8fd3 2110 7540
00000270: 55bb 336b 5ee1 8140 e5a9 430d 0289 8340
00000280: 4ac0 34fe 7848 8c40 a705 e654 f95f a7c0
00000290: 40c2 44a0 2197 8740 0e5f a9e6 5939 9540
000002a0: b57e 56c3 954e 89c0 a416 9abc 2de4 8740
000002b0: 2cfc 3433 94be 7840 aed0 f413 5d67 f2bf
000002c0: 420f be79 91c9 34c0 8d2f f5ce 48d1 76c0
000002d0: e6f2 8135 7fee 8ac0 c8b8 a18c 8393 a1c0
000002e0: 3765 5642 4891 9f40 7dc0 87d2 9c62 a7c0
000002f0: d2e5 521c 6a4a 93c0 bec5 9030 f063 a040
00000300: 1193 ab5e 4284 2540 ba06 3a3f 8805 76c0
00000310: 1451 0a0a 630c 9440 6790 e777 5853 9040
00000320: 4e81 98e2 7d4c 9640 1899 ff11 5eae 9cc0
00000330: 1f7f 8248 8327 a240 0546 66a0 0b56 8640
00000340: 1c52 0e16 a952 6e40 987a afb1 be82 87c0
00000350: c09a 65b0 8094 61c0 3860 a956 cc3d abc0
00000360: cd01 9a9f 268f 9440 28a0 95d0 dd51 a240
00000370: 4f86 0d0d 8f8e 8040 3c3e 5d40 bee8 90c0
00000380: c491 9f51 6adf 9cc0 d3ed cb7a 9ed9 9c40
00000390: 119a 85fb c826 91c0 e9af 6681 48d6 9f40
000003a0: eea6 2731 bf35 9140 d1bc c9c4 dc7f b540
000003b0: 53b1 39f3 def4 83c0 e717 be83 54da a4c0
000003c0: f1e9 aa18 43ed 98c0 f447 e7c7 dcff 51c0
000003d0: b84b b9d3 e6a8 9440 96ad adc0 7225 b640
000003e0: b815 5bd0 c635 9640 1aa0 454a 599d 9f40
000003f0: 880b 5b1d 0722 aec0 cda6 1d84 9bcd 9640
00000400: ff2b 0af7 5081 9540 1dea b950 c1c9 8cc0
00000410: 4c95 0d12 5383 5bc0 d68e 29bf 3cfc 8fc0
00000420: a834 d3f9 c2ad 7d40 8602 abe3 7d3b a240
00000430: 99d1 ecbc cc95 7f40 3da4 7ee8 6317 78c0
00000440: 801a a13f 3886 96c0 5857 0b0a 9733 9140
00000450: 7f97 4db2 5e18 98c0 0371 40fd 6f23 7740
00000460: 5b9e f385 b640 9340 c20d 563d 8a35 7040
00000470: 241e d631 296e 61c0 daf5 e47b 79ff 8540
00000480: 43c9 64a7 e687 9540 23f7 82e2 d288 a040
00000490: 3e25 882b be58 8240 f133 f118 4c31 77c0
000004a0: b1a4 32f8 5cb0 9540 7306 275e 51ff 8440
000004b0: 9bba c92c 7e06 9240 3723 bd93 3d84 92c0
000004c0: ee55 2c9a 533d 9e40 705a f75b 100c 8a40
000004d0: c888 4f0b 6b15 9ac0 694e a37c 7b84 8cc0
000004e0: 9ad8 df06 4b58 8bc0 df13 f62f 8335 5d40
000004f0: a467 ab76 1026 8fc0 7f86 20fa 655c a040
00000500: 9c80 5e07 3c90 6040 5c86 04a2 a866 88c0
00000510: 6ff0 8eb0 7346 8540 a1d8 dc57 f63c 7b40
00000520: 0209 1d95 42c0 3040 1581 26c2 ac84 7a40
00000530: 4e05 1300 498f 9240 c8e7 c4b5 931f 7ec0
00000540: 03aa c928 1e54 7840 00b4 7121 1a5b 7fc0
00000550: 4410 885d 39f0 7740 aca7 9153 4088 8540
00000560: c93b 736d 2caa 76c0 e2b8 e26e af91 7340
00000570: fa3a 3e90 469d 61c0 9c85 6a27 bb0a 8240
00000580: 47e0 5ce4 03b8 5540 1d03 f94d 3914 69c0
00000590: 3dbe 4767 37aa 55c0 c2ab fbbc 2f6e 6840
000005a0: 114f 768a 374f 5e40 4f6d dd7d f981 1740
000005b0: fd00 e6e8 842a 83c0 324e 8a7f 2a74 6fc0
000005c0: c47c 8acf 1099 54c0 f40a 4c53 2300 3440
000005d0: 9258 7d0b c556 84c0 a99c b8c8 a3a9 76c0
000005e0: 0f9f db27 5703 4540 6086 d6ee e5b1 89c0
000005f0: 58ae 7f8a beb4 70c0 e0df ddc0 c2d7 3f40
00000600: 4d28 39a0 ef47 62c0 65dd 62fc fe61 3340
00000610: eeea 6327 c82f 4840 b767 bb12 1fc8 76c0
00000620: e2fa 7e41 56e0 74c0 c78e bb1e 0e15 4ac0
00000630: 15cf b797 224d 5e40 1b09 ed37 e047 58c0
