train_output/model_state_dict.pth (torch, 45185 bytes, 23 tensors)

models.0.layer.weight f8 [1, 200]
00000000: fe74 6ad6 a3c1 f9c0 435a 1710 e0f0 f3c0
00000010: 4618 3a4a 511d 9640 63ad fce9 03c2 d540
00000020: 64e3 10eb 9b9d cc40 3058 6e34 2fcc 6240
00000030: 52ac e1ca 9ed6 ccc0 9c8b afad 855b d3c0
00000040: 80f6 e7b9 e4f5 ac40 ffa6 67fd 09f5 c040
00000050: ebef 55d2 d4f4 d540 b6e4 09b4 f912 d940
00000060: 558c 6960 2cf6 c640 a7a5 ade1 6d23 c4c0
00000070: c022 c033 9495 cfc0 ccb0 b473 e87e b840
00000080: 0f9d 24a3 e36a d840 1762 93e1 1833 c440
00000090: f71e 0c82 e59e cac0 b0f0 ff74 6a5b b5c0
000000a0: 88bc b56f a2c8 b1c0 027b bbc5 0e04 ae40
000000b0: 8dc1 538b 59c4 9440 7c70 a735 1b13 ab40
000000c0: 268b 160a 81f2 1640 f1bd dd55 ac5a 9c40
000000d0: 34bb dd26 7cd8 9bc0 4b05 5651 312c 9340
000000e0: 68b7 2521 37bf b6c0 be00 5777 3858 9d40
000000f0: 8f03 31ba 8d31 84c0 20d7 3455 b086 b6c0
00000100: be97 09c7 2b7b c740 05cc 262a 23f3 ca40
00000110: 04d0 1150 5b1d d2c0 f5e0 426d a0aa 79c0
00000120: 14a5 b738 2d78 75c0 840e 06a5 6f2b c5c0
00000130: 4005 06bb c4e8 cdc0 7200 bbcd 3227 aa40
00000140: aab2 024f 1c4c 77c0 7ffc 968b b601 ab40
00000150: 886f 6438 e6fa 8640 1b08 bb42 9264 b2c0
00000160: 015e 0bad 9111 b040 174c f2f2 ee6d a440
00000170: 867f 8a1e af16 cfc0 1f31 b31c c3d5 a5c0
00000180: 2042 01b0 97f7 c1c0 07c3 6f67 440e cac0
00000190: 374f c329 d1fc 95c0 2d60 85c3 ec04 a740
000001a0: cd37 e04b 2c0a a8c0 15eb 2906 8d5a bf40
000001b0: 3906 0211 ed0b 94c0 30bd 1cd2 e184 d040
000001c0: e220 fd01 3489 ae40 8f78 d9cb ae04 b340
000001d0: 3564 ece3 9624 c240 f83a 8e6e ffb1 c8c0
000001e0: 8a16 01fa 84aa cbc0 4fb1 18be b3aa 7740
000001f0: f240 a541 029a c2c0 a431 327f 8fc2 cbc0
00000200: d7f4 1348 6705 abc0 bad9 df06 c818 d2c0
00000210: aa30 fa6f 6c04 a940 42f1 95aa 7ac0 cc40
00000220: 8fd8 fe99 72bc d7c0 a485 9e26 aaab c340
00000230: 32c9 afbf 9bd6 c940 f8f3 1f5a 9bf7 c540
00000240: ada8 58f8 34e8 ab40 4355 6533 cd05 d0c0
00000250: f675 7ab3 7e13 c440 7333 f6f7 2e65 a5c0
00000260: 6c84 f213 276b a540 b03e 5ec4 619f a5c0
00000270: 7646 66bc 6602 c140 f925 e661 e9e6 b340
00000280: 55e6 69a6 bdfb bf40 55c4 779d 9048 9e40
00000290: aa67 3127 52a9 c6c0 12ca b661 a41b c3c0
000002a0: 6189 937d cfa6 41c0 6046 dedd 219c 9c40
000002b0: 6905 79a9 9b70 c640 a30b 45ed ccef c340
000002c0: 0eb6 54e6 2d5d b9c0 3291 6986 7931 c040
000002d0: 8cf5 b5c0 077f c1c0 c956 3423 41f4 c440
000002e0: 1ee4 fc2e 8214 adc0 263f 66e6 46a4 d340
000002f0: 1a78 bade 9f02 a3c0 131d 82c0 bf19 92c0
00000300: 77da 2aeb f400 c5c0 5a6e 0dea 3010 97c0
00000310: 7300 ee61 1c3d b0c0 8655 0c40 e824 be40
00000320: bcd8 ffb2 c098 be40 d50d 52f1 9c4e b3c0
00000330: 564f f042 2d9b b3c0 8718 8b6b 9480 b240
00000340: c225 c06b 1fb5 94c0 b9f1 9cd5 ce39 9b40
00000350: f77e 0e82 6e32 b440 c587 7472 1fd1 a040
00000360: 1dac e500 7e4e c040 93d6 ed2c 00ec aec0
00000370: efe0 5b6e 11e8 aa40 7ff7 b674 ec97 a440
00000380: f017 56a3 34ad 9140 546d 5493 de8f cec0
00000390: b41b 0e58 7acc 6440 06a4 5192 85eb b640
000003a0: c04c e7d0 0816 3cc0 7eb2 7f3c 1663 acc0
000003b0: e42e 73f9 af7c b240 6b16 f096 ef38 a1c0
000003c0: 3953 8655 db62 9b40 5fb2 1755 3ecf 9340
000003d0: 4e64 da65 94ea 8bc0 1a2d 9978 80c3 b840
000003e0: 8f8e 6b49 4140 6840 2bde e4ca 140a 8140
000003f0: f290 5df8 6041 90c0 824f 328a 5c2f a640
00000400: ef98 1bea de39 ab40 f327 05bb cb89 0ac0
00000410: f847 8f54 6d17 99c0 1878 a50a 9534 87c0
00000420: 0350 789c 39a4 7a40 4841 55e6 2772 8340
00000430: 4bec b762 d44c a140 ebb4 c808 9b50 5bc0
00000440: 17fb 1f92 cc53 88c0 9947 72e4 c3c2 8040
00000450: 639c 6567 c108 9dc0 e080 efdf de7e 8a40
00000460: 1344 48f8 7807 7640 2ad5 72e0 e827 7340
00000470: cb69 a2d2 b8a4 9540 7063 2828 c080 7240
00000480: 9e05 0a20 dfde 7240 279f 7045 7693 6ac0
00000490: 7d7a 47f5 428c 5d40 986e 844f c31d 64c0
000004a0: 1a65 bea7 71fb 6d40 9236 1497 e9f2 8540
000004b0: 7476 6f06 7105 8140 8262 45cd 6b0a 62c0
000004c0: 0be2 3ba4 6607 7e40 911d 0b6d 73a6 80c0
000004d0: 3d3b 7617 017e 85c0 5559 19df 24e7 54c0
000004e0: 675c 3a8f ac2c 62c0 7d8b f431 0670 6a40
000004f0: afc5 9464 05c8 7640 7854 57b6 9d5d 8640
00000500: d144 938e 9213 8340 243d abae b251 50c0
00000510: 7e89 b508 2a8d 48c0 d326 7d23 b068 6cc0
00000520: 6625 4b22 82c3 5840 7eac b2cf 0bdf 51c0
00000530: 8b1e 4e46 246e 5e40 a743 7aa6 7b5d 6d40
00000540: f3b4 a809 7d0b 66c0 5a6c 4c52 8f5d 5b40
00000550: 23ff 8a99 bbc5 4cc0 7481 3e70 9d93 6b40
00000560: c2eb 7cc5 ae06 14c0 a972 cc59 03cd 3d40
00000570: 9dd1 e737 4e71 53c0 f62c 3c38 3bba 50c0
00000580: 3f66 9f62 c1dc 6640 fda7 41c5 6522 31c0
00000590: 16b7 2030 4fbf 7240 a61c a806 7340 6540
000005a0: e4ef 57a3 eb39 4a40 4a8f 17ac 263e 5040
000005b0: 708f ef2e 114f 34c0 0fde 7faa 1169 4340
000005c0: 8909 ce81 0dfa 35c0 a3ac 2d59 ebe6 6040
000005d0: 2863 d989 fee1 5040 0982 023d e559 4640
000005e0: 40b6 077d c9ca 0b40 a9be 0477 0c46 4940
000005f0: 8d5f 586a 8ad9 4840 b358 f159 6f24 2a40
00000600: c946 1b78 34e6 3d40 4d15 ee05 d4a2 5540
00000610: f0e0 4fe4 c58d 5b40 b3fe 5952 61e5 4340
00000620: fcad 9b06 81e9 3640 9d67 6561 22e1 5040
00000630: 8069 6651 5319 4840 b008 7b35 e8bd 5640
-105498.23984761906 -81678.00392852076 1415.329384715778 22280.061156434367 14651.218111144095 150.38076230575234 -14765.240566453114 -19822.088725935304
3706.946730851021 8682.078045803586 22483.325337871833 25675.901613686896 11756.346692269823 -10310.858449655423 -16171.15782930085 6270.908015530742
25003.55683245981 10342.19438402452 -13629.793031230087 -5467.415847774755 -4552.6345170579225 3842.028852328077 1329.0874455534824 3465.553143722993
5.736820371271085 1814.6682963034802 -1782.1212420125494 1227.0481618347865 -5823.2153495381135 1878.0551427454188 -646.1942027882777 -5766.6888001465995
12022.342011641591 13798.274723863238 -18549.426762059345 -410.6641666996432 -343.51104041801705 -10838.872223622406 -15313.53695750481 3347.599225848965
-372.7569112878215 3456.8565337355826 735.3624122473275 -4708.571330728034 4113.569046698046 2614.9666972844966 -15917.368119537608 -2794.881078338381
-9199.185058743751 -13340.534406633595 -1407.2042608754252 2946.462429206839 -3077.086516386806 8026.550875301259 -1282.981510192518 16915.528449234727
3908.60157767321 4868.682797996457 9289.17883067029 -12643.995561388772 -14165.038879524236 378.66888246198226 -9524.017628342353 -14213.121069216002
-3458.7017217861535 -18531.125419581054 3202.211791819039 14720.95833086281 -24305.79064913891 10071.329303565268 13229.216787312736 11247.213687891126
3572.1034572320846 -16407.20626195265 10278.989852244948 -2738.59173554781 2741.576324061074 -2767.690951295044 8708.802624496846 5094.911650070449
8187.7408205211 1938.141225692137 -11602.641821075074 -9783.284231995265 -35.30320710853517 1831.0330729227499 11489.216109397546 10207.600990896875
-6493.179295820662 8290.949414440056 -8958.060568566223 10728.50888685453 -3722.25426473889 20113.107812463444 -2433.3122461577996 -1158.4372577982183
-10753.91342673938 -1476.0477678392986 -4157.110869288549 7716.907227297668 7832.7527313141 -4942.6130572589655 -5019.176802653665 4736.579765981186
-1325.2806844733282 1742.4519867441688 5170.4316720066045 2152.5614200988516 8348.984402379074 -3958.0003427814895 3444.0340450965955 2635.9618279626006
1131.3014043285475 -15647.738871148475 166.38993456607352 5867.521763899369 -28.086072021932296 -3633.543430319346 4732.687400053928 -2204.467948439347
1752.7141934383674 1267.8108714773768 -893.3224598943577 6339.501840184699 194.00796957976533 545.2601526146221 -1040.3446974391668 2839.6807418558174
3484.935379850787 -3.3172831164310934 -1605.8567678821255 -742.5727742125773 426.2640652370175 622.2694822941348 2214.414815661997 -109.25946254349007
-778.4748880861761 536.3456505706882 -1858.1888709904385 847.8588255606846 352.467033655442 306.4943546758319 1385.1804910065719 296.0469132974313
301.92947391428777 -212.60818740841316 118.19158679943389 -160.93009162774683 239.8576239317561 702.3640576914934 544.6801880558037 -144.32565940429419
480.4625589694194 -532.8063603275679 -687.7505330311611 -83.61162545657619 -145.39606439016936 211.50075624239608 364.5013166247763 715.70200794436
610.446561003244 -65.27653090212385 -49.102845276490356 -227.27150129741366 99.05481774652944 -71.48509590576757 121.72096402767981 234.9213440311407
-176.3590133948379 109.46187264884193 -57.544787590856025 220.6129685612501 -5.006526075124329 29.800832378782307 -77.77039907110743 -66.9098644817021
182.89860659725852 -17.13436539509711 299.9568330076157 170.01404126009328 52.45250360292246 64.97111036587481 -20.3088559470047 38.820851623950254
-21.976768601228773 135.2162290470197 67.53116079549056 44.70230829832514 3.474017121122216 50.54725539905241 49.69953660311794 13.07116204329609
29.89923811593943 86.54419086695016 110.21520335961009 39.79203252214702 22.91212502766392 67.5177234163552 48.19785516262618 90.96729790701897

models.1.layer.weight f8 [1, 200]
00000000: b509 ef1b 6000 cec0 d6fb 4c47 0ed4 c2c0
00000010: b630 2cdc db0c 93c0 e694 e52e b0e2 bb40
00000020: f95a d5e9 ad7f b2c0 91a2 289a 4af1 c040
00000030: 08b1 720b d689 c740 2e4e 62e4 0717 abc0
00000040: 25b3 d9d3 3eeb c440 3fda 5277 e83b b040
00000050: f4b3 c2f2 2498 c240 8884 8a57 29e9 98c0
00000060: 6481 f622 804a 8fc0 fefd 2ff1 e338 bfc0
00000070: 0e76 164e 3832 b1c0 bd7a 2078 138c 8d40
00000080: 49f4 78a6 71f9 ab40 9a68 9aa1 2790 c440
00000090: 3959 2d40 7046 b7c0 f78b b137 dfb2 b140
000000a0: a030 af8e edaa a740 2bc1 4a4a 26ee 6340
000000b0: d80d 1649 b77d a1c0 b43e 1bd7 bdc4 a040
000000c0: 92eb 41af 07a4 c1c0 1cb6 f051 9e7d adc0
000000d0: 1c6c 8dde 8521 9640 87b9 768b d0d6 ad40
000000e0: ede0 05a0 019a 8d40 9ba9 4ff2 10ad aec0
000000f0: d800 75a9 a59a a540 3ffd 6558 240a c2c0
00000100: da30 1eb4 d704 c440 7e6a a345 9366 a640
00000110: b868 8657 cd02 c1c0 6f12 34de 648b a840
00000120: 7b6b 51c6 7dfa 58c0 ffd8 65d2 1d07 9d40
00000130: 3324 b722 461f bb40 3b29 14a5 4093 c740
00000140: e2e5 6707 2243 9e40 0ba8 7d34 8fe3 bd40
00000150: ba69 4e80 be0a c640 5bc6 6247 5478 b940
00000160: 77a4 a97e 32d8 c240 512b 6235 6fca 91c0
00000170: 125e c112 3857 ca40 ce8d 5566 6f20 ad40
00000180: 043b 363f da34 9840 d75c abde b3d0 a5c0
00000190: 34e3 3046 5ded c840 5cfd 09af ec9a cdc0
000001a0: fe91 e971 3b6e b7c0 fac2 f931 aa7c 7740
000001b0: c3dc 3477 7b64 bd40 24cd dc14 40a5 d240
000001c0: 3226 78db 2370 c640 64c1 c7cd dfb5 d040
000001d0: e56c 1928 8caf c3c0 4d83 c5a3 ded5 b8c0
000001e0: af0f 05c0 870e 5440 a347 db26 4a62 bec0
000001f0: cac6 b307 9855 5840 f194 6838 ceec c1c0
00000200: 9014 88b0 d9dd 3ac0 b85e 1f91 5dde bcc0
00000210: ae31 0ad4 b59e ba40 0d8b 136f 210a bb40
00000220: eb8a eb9d 380d c3c0 eeaa 7e43 a448 d2c0
00000230: 0fdb e418 64c4 6240 97ab 1637 f42e c3c0
00000240: d909 58f5 1f02 b340 2d8e ecc1 072a cb40
00000250: 8234 add6 2f0e b4c0 3335 be18 3fb0 b7c0
00000260: 5a4d 5f03 0895 9840 bb73 6e53 4fb4 90c0
00000270: 405c 15e1 2ded 14c0 0a5f 0e76 a6bd c2c0
00000280: c701 4d50 480b 92c0 c552 1abc 1784 c4c0
00000290: bf55 95ca d603 a2c0 20dd af47 9f02 b940
000002a0: 4ca8 b3cb fe63 bec0 6215 c3c4 d968 c3c0
000002b0: 1eb6 baf1 9f30 ad40 d61e c942 c8ad c1c0
000002c0: 6bab eef4 9ccb b940 c1c4 8234 51bc b840
000002d0: a362 ac1a 226b 6440 62a2 9151 723d b040
000002e0: 8f0d 4b7f c356 c1c0 1544 7520 e782 bc40
000002f0: a909 d166 1be8 c040 8caa d8d8 b7db a4c0
00000300: 6dc4 466a 6f96 8fc0 e1ee baa0 7e1f c340
00000310: f6ee 2834 0573 ac40 53ae 8033 4e42 c4c0
00000320: f076 b1d2 0a4b c740 8baa 5990 4b10 a8c0
00000330: 2e98 7e4a 237e 99c0 6b2c a5c2 0f69 9740
00000340: 4446 7fda 2090 7cc0 60fe 3bce aa3f bc40
00000350: 0fc9 6b4d c9d0 bc40 a7a3 9edc 6459 a240
00000360: ceb8 287c 3ac9 a1c0 793a 813c 7d86 b8c0
00000370: 2212 246b a925 b740 992d 85f2 8d85 b0c0
00000380: affd 7fe6 7c74 a6c0 c6bb 92c6 658c c4c0
00000390: bf74 07c5 de89 ae40 7969 751a 998d afc0
000003a0: b0db f997 e258 be40 83c2 6da5 a241 9f40
000003b0: 035d ae24 e008 9640 d465 9752 e61c adc0
000003c0: 841f f0bb 7604 8d40 8fa2 a726 e329 b540
000003d0: 90de f38f e87a 96c0 4372 28f8 5bb6 8e40
000003e0: 146a aa13 27b5 51c0 ac6d 9355 3a42 9e40
000003f0: 1c33 521c a130 a1c0 cd50 581b a7d8 a8c0
00000400: 8ef7 cb78 44bb a640 141b ca06 1b16 4e40
00000410: 083a 225f 5906 87c0 a89c 0de4 c3fc 8340
00000420: 8289 efa2 29db aec0 af91 ae0a 7e2a a240
00000430: 73e1 4458 4487 b0c0 1be2 6868 25af 8240
00000440: 41a6 8443 5806 9a40 7864 6b03 c333 9bc0
00000450: 3116 fc15 0c70 bb40 f23e 9107 fbad 7cc0
00000460: d55c 375f 0b8d 9140 45d5 f8c8 be07 7840
00000470: 273e 7f71 e97b 8ac0 79b1 e0cb b7f2 83c0
00000480: bff3 8e12 b480 4bc0 072a e990 e505 9340
00000490: 9421 dbe1 b243 5240 7a0d 5151 33c3 8840
000004a0: 90d4 a0c9 0ac8 7340 a9c7 c511 cd91 4540
000004b0: 3630 9d8b 9255 5740 c117 5470 466d 99c0
000004c0: d661 b3c7 fa5a 9ac0 f1b8 33b8 c858 8040
000004d0: 6e0a 31ca a123 8440 ce11 8486 816c 33c0
000004e0: 9f2f 9f61 001d 6540 7e3f 899c d98a 58c0
000004f0: c2fa 12a5 595c 79c0 00c9 8d9c 3163 85c0
00000500: 4411 b701 54c6 92c0 20d1 d66f e057 9140
00000510: ec6f a19a 33ce 6440 8956 5f78 771f 75c0
00000520: 95e6 35c5 a26a 2cc0 bfea d300 bd8e 8140
00000530: e4f6 b548 17b2 7440 3ccc 6438 a0a9 3440
00000540: be4e d803 93c6 1cc0 cc82 fc63 28da 7440
00000550: 7bcf 411b 1ccd 65c0 3ca6 5331 06fc 74c0
00000560: b0e9 1e84 f4ca 39c0 3a32 0eaa d754 70c0
00000570: 26b7 57de 3ba2 59c0 76c4 bb18 fef5 62c0
00000580: ff80 d6a1 c1c0 71c0 d8e9 fab7 b484 4e40
00000590: 4039 227e 8b8d 6440 fafb d0cb 6b04 6dc0
000005a0: 69c2 1962 a84d 4cc0 1a0e 37ef 6369 64c0
000005b0: 2813 ec58 5030 57c0 4e8a 6723 df64 5a40
000005c0: ad09 c1ba 037a 65c0 3254 4865 bb29 5dc0
000005d0: c1de 4912 d332 52c0 ad52 6efc 8c5b 4040
000005e0: a2f1 30f4 8806 3fc0 f10a cbea b369 0d40
000005f0: cc37 7935 bf80 6bc0 de3f 9ee6 74b6 1d40
00000600: 4030 210c 1e38 41c0 4702 38be e390 5040
00000610: 3886 0121 344f 55c0 0ba6 f9fd 8227 3b40
00000620: 1971 779b f365 5640 ef8a 22b4 a4c5 50c0
00000630: 0b3e b2d0 5d87 4040 d24c 4776 f66b 18c0
-15360.75085247015 -9640.111550925223 -1219.2147070793849 7138.688215588429 -4735.679349264822 8674.582829551104 12051.672224365655 -3467.515414306682
10710.49084016082 4155.908070734294 9520.288658464306 -1594.2903730052367 -1001.3125666864621 -7992.8903989787195 -4402.219941524336 945.5095064675767
3580.7219732092094 10528.309619237018 -5958.438479265483 4530.871943566009 3029.4639792200906 159.44217409706593 -2238.8579794780635 2146.3707817567865
-9032.060035934472 -3774.8092189047147 1416.3807317826495 3819.407314024112 947.2507935008304 -3926.5330986876047 2765.3235584796457 -9236.28394770494
10249.68518426309 2867.2876406733985 -8709.604233552105 3141.6970077774527 -99.91392667723805 1857.779122916574 6943.273967214906 12070.505037803776
1936.7832313760814 7651.559394696737 11285.488290597557 6520.329214261462 9648.394490437799 -1138.6086020792902 13486.438072367604 3728.217577622948
1549.2131317590256 -2792.351308207591 12762.728704558314 -15157.849091767035 -5998.232206915038 375.79155156672607 7524.48228769674 19093.001273346264
11488.28013517251 17111.496934832438 -10079.094973734065 -6357.869686455303 80.2270355271746 -7778.289655404081 97.33740418010998 -9177.611096451497
-26.866602929327712 -7390.3654956442115 6814.710266720895 6922.1306011404495 -9754.442319338637 -18722.5666195554 150.13721890161875 -9821.907931169304
4866.124837400822 13908.060605592176 -5134.186869454688 -6064.246471298206 1573.2578253642046 -1069.0774667032372 -5.231620327881558 -9595.300477787405
-1154.8206188232741 -10504.185427942672 -2305.9195143382235 6402.622187606321 -7779.995295742596 -9937.701317201081 3736.312391123515 -9051.564538135583
6603.613112370348 6332.317207501445 163.34791310948376 4157.446557142395 -8877.527322179432 7298.902839020845 8656.214075212209 -2669.8590762813747
-1010.8044019249625 9790.989280096665 3641.5101635734272 -10372.61094673645 11926.084554846835 -3080.147585680073 -1631.534463861502 1498.2653909500466
-457.00802087513534 7231.667209386447 7376.786337601267 2348.6969956946155 -2276.614228508529 -6278.489204479957 5925.661791090419 -4229.554481814987
-2874.24394607517 -10520.795122472464 3908.93509696293 -4038.799029988408 7768.885131469855 2000.4088341855975 1410.2188899273176 -3726.4498488723566
928.5579756507509 5417.887308575809 -1438.727111635646 982.7949069175596 -70.8305100597575 1936.556967071122 -2200.314669197787 -3180.326380500663
2909.6337341060344 60.17269978397795 -736.7936384843788 639.5956498206551 -3949.581321225677 2325.246175246509 -4231.266971879045 597.8932655519487
1665.5861950613473 -1740.940442731864 7024.047210460108 -458.8737865136783 1123.2611054087076 384.48407838058876 -847.4889860096781 -638.3397443346176
-55.005495376396986 1217.4741856033231 73.0577931060746 792.4000574428785 316.50263369392724 43.139070722172 93.33706941938803 -1627.318787874174
-1686.7449024227585 523.0980075875106 644.4539989310558 -19.4238514015613 168.9062965497114 -98.16953195002677 -405.77188594259144 -684.3992243840185
-1201.5820377926148 1109.9691766324177 166.44379931956007 -337.9666675304548 -14.208273089246442 561.8422867351545 331.13068457679606 20.662601017578922
-7.193920192792289 333.6348609794338 -174.40968096593483 -335.7515118854096 -25.792793519541817 -261.30265241189375 -102.53490408483466 -151.68726765321088
-284.0472734812792 61.03676509620317 164.42327791866592 -232.13815871064418 -56.60670114763054 -163.2934490275664 -92.75490401319678 105.5761192809234
-171.81295526220984 -116.65206272185677 -72.7941327783001 32.715240053051595 -31.02552725024146 3.6766126960004546 -220.02334092784292 7.428180316361219
-34.43841697330981 66.26390033216113 -85.23755669735772 27.1543425306791 89.59299360908734 -67.08817771313964 33.057550513298416 -6.1054323655145755

models.2.layer.weight f8 [1, 200]
00000000: 2051 082f 6bf2 97c0 c1e7 fd27 04b7 9bc0
00000010: c16c 52db 92b5 ae40 ded9 a8a5 2a78 b1c0
00000020: ae1c 0baa ddb0 b440 6edf 1114 7970 9fc0
00000030: af97 1826 0fbc 70c0 6fe9 e7b6 06fc a240
00000040: 1fd2 a435 c56c b4c0 fb2a 029a 58bc c3c0
00000050: dd01 6d88 a7ce b740 a3b7 5c5f 1f09 b2c0
00000060: 2d4a 8ec8 8bad 99c0 ce5f 11bf 5108 c040
00000070: bb7f 4ddd 15e7 d6c0 d38e f213 7ebe 5e40
00000080: ea03 5a70 1b35 86c0 aac5 9a46 18a9 b7c0
00000090: a3da cd55 4fa9 af40 b8a5 30f6 960c abc0
000000a0: 9eef 69cb 76b9 a040 6791 56c6 2b72 7bc0
000000b0: 0e6b 5b2d 480c b4c0 8371 b436 0590 8bc0
000000c0: 85be cef6 ab27 8e40 dc3e 1d9c fcb5 3440
000000d0: d57e d365 9559 6740 dd0c 674a 842b ab40
000000e0: 20ee 6cc9 32b3 b5c0 6ae1 e08d 89e4 b3c0
000000f0: c654 1bde 1a01 a940 a331 99cd e051 c140
00000100: 93de 7f66 80c6 b440 a7bc 06d7 fb34 b640
00000110: e9fd 6d79 5f45 ab40 5ceb 83b2 b6b5 bdc0
00000120: f232 765d ceac a3c0 c9ee 5462 f32e 8140
00000130: d3f9 0bba 1749 8e40 ba5c 01c5 f79f 8940
00000140: d984 2d0d 3615 a940 b434 f85b 51aa c3c0
00000150: e5e2 ed8b 2c1a 9440 3d4c 88db 2d4f cbc0
00000160: ccd2 b060 4ab9 c0c0 f7ed 63d5 ebe2 9f40
00000170: 912d b639 142a c1c0 89eb 390e 3e23 56c0
00000180: 5970 f675 b9a3 acc0 17ed 371d eea9 b340
00000190: 491c a9cf e1e9 a8c0 3e49 a985 d739 9640
000001a0: 30a3 7c1c 5c8d 84c0 d2f8 bd61 e1d9 c440
000001b0: 7917 a69e d730 94c0 cb7e 9856 f5d7 bc40
000001c0: 35a4 8d3d d680 70c0 05a2 2a5c 61a1 c940
000001d0: 9945 dd1b 5160 c040 4f55 ed90 6674 b740
000001e0: fe32 3ef5 8335 cfc0 497a b92e b2b3 48c0
000001f0: 303f c251 f2dc c940 bc6d 1c50 3deb be40
00000200: f6c8 f093 fe50 ccc0 9e72 4a7b 665a cac0
00000210: adba dc8e f8bc c240 c631 8f37 142f d040
00000220: 9574 ce5f 1c39 cfc0 8cf9 fffb 8e12 c9c0
00000230: 483d 2c8e 412b a7c0 1000 4439 5df6 cc40
00000240: 0d6d 44ed 2ba5 b1c0 3c2d 766a 1066 af40
00000250: 1ee9 5718 450f c5c0 8973 5d42 3217 b6c0
00000260: f14c c885 fff4 c240 7fca 13d5 552f b040
00000270: 7d06 2cbc f170 b540 b5f6 a4a1 078e bd40
00000280: 1d2f bf5d f61f c340 3a5b 82bd 3bc5 c240
00000290: 5c9e 0f82 478e cac0 ece6 7a87 2a5c b140
000002a0: 1ae2 df77 6da0 c440 a46b f067 b436 bdc0
000002b0: 6846 d697 93a4 c0c0 5574 0811 26ce 9340
000002c0: d80e 4007 f9fa c3c0 db20 38b4 aac4 cac0
000002d0: 6c37 aa59 4942 a840 7579 808f c77c a540
000002e0: e408 36d4 194d c2c0 6be5 e9ac eb34 afc0
000002f0: a9df 6805 e677 ce40 a9dc e555 8de9 b340
00000300: 7d47 0279 9db0 b940 d035 f19e d84d a5c0
00000310: 7a4c 2c91 9556 9d40 ec68 bb60 1134 c6c0
00000320: c2ea 9f2e 52e5 d2c0 9704 1f4e c27d be40
00000330: 95c5 2e9b 0845 d0c0 81bc c223 c55b d0c0
00000340: 30ff b6dd 62f9 b2c0 9f54 e151 8884 c3c0
00000350: 299e d362 9274 b4c0 3f59 6ccc 0835 c040
00000360: 2ee9 b7d3 4ad5 b1c0 4b34 bc80 282e b340
00000370: 791f 5a8e 133f d1c0 a0ef 2707 e6df b240
00000380: df74 73e7 5a40 b440 68d9 fb31 818a dac0
00000390: 844b bab9 42e2 c040 1496 8224 2d4f bb40
000003a0: 92c3 6809 88f9 c140 face 9e03 3bf5 9fc0
000003b0: 35cf b299 e7e0 bd40 e0a8 935f 8c05 b440
000003c0: 24d5 d374 b620 c8c0 40ea ff0d 1ad5 a740
000003d0: 5442 bf44 812f b540 5242 fd4f c096 d5c0
000003e0: f3e6 c30a 39c1 cd40 de49 44ab d061 d3c0
000003f0: 3c7c 1b87 7aa3 a3c0 c55d 6e6c d747 a140
00000400: 9848 18b3 505a afc0 a366 2d50 35bc 84c0
00000410: ed0a e511 b4a3 7040 42e2 6439 d807 ab40
00000420: 85c0 02bc 5a8a 9640 41ce 6640 43c7 c2c0
00000430: 1dc0 7939 8f92 a040 3d40 f2dc a8f6 b8c0
00000440: 317c 9614 5040 c3c0 d655 3095 cbd5 cac0
00000450: 33d6 439a c669 aac0 d4ed 70a4 a457 bbc0
00000460: 7f55 1650 2305 cb40 944b 4125 9170 c7c0
00000470: 0578 be1b f41e c140 42ea df8d 5cf6 cac0
00000480: ad2b 59d4 563b cbc0 969d 4b77 5c14 a240
00000490: 34f7 ea7b dc5c 9ac0 0c72 5d03 96b6 b9c0
000004a0: d133 fa83 abc0 bec0 7338 2eac f1ae d240
000004b0: 7083 6ed8 4480 9c40 e6d1 39de 8cc7 acc0
000004c0: c249 9cc9 2cfd bb40 d9c1 44b5 b9e2 b040
000004d0: c15c 948d 2b42 c4c0 46bb 6465 56b3 7040
000004e0: cc37 2a85 d714 d940 eec0 282a 91ae cbc0
000004f0: 155f 6fcb ce0f c6c0 c0bb a52c 20c8 aac0
00000500: 1467 a28a 30b1 a7c0 5b5f 9ada 824f af40
00000510: 56cc a322 0285 ba40 5748 0db2 3f81 c640
00000520: 8527 a7cf 0579 b940 8b85 656b 88cc 8540
00000530: 5163 c57a 9e00 b4c0 7cb9 c22e b212 c740
00000540: 6791 17e4 5e11 90c0 5734 2333 1144 c540
00000550: c434 da50 df33 b9c0 ae71 8c99 f20c a840
00000560: 8dfd b021 2a0d d240 fb05 a9fe 51db 99c0
00000570: d4c9 0aa6 67f0 bdc0 45bc 7db8 19c4 b4c0
00000580: 4470 8ab8 1d3b c1c0 c042 79b8 1699 c3c0
00000590: a174 ce39 dbb6 7e40 bea1 f00c d8e0 a6c0
000005a0: d876 7e9c fb99 c040 63f8 0806 9154 bf40
000005b0: 5f39 34d0 a943 cf40 2ec1 8048 dd4a 89c0
000005c0: 77ab 012b 4efb 9ac0 5312 c4c5 eb8d 9640
000005d0: e9c7 23ec bec7 a840 7c58 45cd 3962 c040
000005e0: 0862 4de7 e940 b640 8a55 1705 1339 a040
000005f0: 6e57 f94b 5e91 b340 5b33 7a39 67af a440
00000600: e12c 9f23 c2a7 a640 7f74 96c8 6a16 bd40
00000610: a26b dfa5 d177 bcc0 8cb1 a13e f104 b4c0
00000620: 3ca5 6262 1814 8240 f568 66e1 a92b af40
00000630: f8f5 d623 146c 5340 a530 3d95 165a 8a40
-1532.6046716022029 -1773.754058806677 3930.7868295438534 -4472.166590264502 5296.865875906469 -2012.1182406227704 -267.7536984406133 2430.0131142113164
-5228.770349789905 -10104.692199965464 6094.654425442653 -4617.1225488613445 -1643.3865072472356 8208.638643428592 -23452.34163224672 122.97644518554016
-710.638397887463 -6057.094827340372 4052.654951508464 -3462.2948470308584 2140.732020674229 -439.1356871968805 -5132.281942094456 -882.0025457474843
964.9589668418781 20.710885769977594 186.79948703105643 3477.758380146332 -5555.198386009346 -5092.5373211431815 3200.5524757901176 8867.75627436565
5318.501564018096 5684.9837497912 3490.6864733097505 -7605.7136614274605 -2518.4030568062963 549.8688398967143 969.1365853248229 819.9959812265799
3210.605569288699 -10068.635619188055 1286.5435025377021 -13982.358262097574 -8562.581075766495 2040.730306207084 -8788.158011219262 -88.55066257148987
-3665.8622281086105 5033.93013333834 -3188.9410374495533 1422.4604708147958 -657.6699762093831 10675.7607953515 -1292.210566134627 7383.958352595287
-264.05230479553876 13122.760625199424 8384.633662852271 6004.400648911788 -15979.030921721362 -49.40387519890334 13241.893120079854 7915.239503647605
-14497.988889787794 -13492.80063753697 9593.941859809065 16572.315891073806 -15986.221673781323 -12837.117065426683 -2965.6280378174597 14828.728310108214
-4517.171589161514 4019.0320622377603 -10782.539805401637 -5655.19632515021 9705.996270215577 4143.335282551706 5488.944277526459 7566.029810247642
9791.924735925679 9610.466720861954 -13596.558656647037 4444.166129762056 10560.855220780755 -7478.70471098545 -8521.15307119787 1267.5371743508342
-10229.945533759354 -13705.333624855082 3105.14326221396 2750.3897667072547 -9370.201788668004 -3994.4603036015083 15599.797040089807 5097.55209194791
6576.6151276993305 -2726.9230876329602 1877.6460616037061 -11368.135764528495 -19349.284095744377 7805.7590045343595 -16660.134471600486 -16751.08030765923
-4857.386195599844 -9993.064998785323 -5236.571820474733 8298.0687385021 -4565.292293066434 4910.158214342849 -17660.30556347917 4831.898546691897
5184.355094162019 -27178.018675768195 8644.521292960046 6991.176338349953 9203.062787147039 -2045.307630998023 7648.9046890025975 5125.548333386163
-12353.425440291474 3050.5508880589914 5423.504955247587 -22107.00488215901 15234.445641029137 -19847.260453292976 -2513.739312037387 2211.920749138781
-4013.157616385328 -663.5260318324039 266.23146237821385 3459.9223128820604 1442.5886078290944 -9614.525402880392 2121.279735378934 -6390.659621372874
-9856.625628290787 -13739.590490381157 -3380.8878956984495 -6999.6431341725 13834.275881568667 -12001.133949434188 8765.907096680263 -13804.723079671272
-13942.678355356527 2314.180597651469 -1687.2153164590245 -6582.585988846153 -7872.669982564593 19131.776134066702 1824.0672318713878 -3683.7751329487537
7165.174951332099 4322.72542218907 -10372.340258164682 267.2085927901102 25683.367502741326 -14173.134099096493 -11295.615583344867 -3428.0628406325995
-3032.5948076964214 4007.7555740586663 6789.008341061961 11522.497621212313 6521.022699782513 697.566611092699 -5120.619060837505 11813.392052021569
-1028.3426669771668 10888.134373093182 -6451.872327459223 3078.4738277329225 18484.658306357964 -1654.8300730142498 -7664.404877352023 -5316.100471361603
-8822.232194237535 -10034.177504689782 491.428521925418 -2928.421973724121 8499.965713317899 8020.566498337404 16007.326666381849 -809.3580484446481
-1726.8263359318642 1443.4802466045555 3171.8728953534633 8388.45157687016 5696.913685642656 2076.537148217384 5009.368346771093 2647.70161039235
2899.8791780226024 7446.417123225633 -7287.818937267091 -5124.942361932608 578.5119064051319 3989.831797790825 77.68872924797313 843.2610268383474

models.3.layer.weight f8 [1, 200]
00000000: d65b 46ff b3a5 b8c0 e5d2 ec52 7197 b1c0
00000010: 193a 4d2c 14fe 86c0 f432 8920 44fd 9040
00000020: c7bf 1956 af0d 84c0 7777 7293 37b3 bb40
00000030: d913 efd1 d720 ac40 4b3a f188 65a2 a7c0
00000040: 56d8 ad07 142c b440 aac6 7c46 542f 8dc0
00000050: 88de 88d2 c204 9ac0 ffc3 245f 840a a340
00000060: ab8e 8246 fe4c a840 6f93 724c bb49 a3c0
00000070: e4e3 48d5 7703 adc0 2318 8ab6 f1bd adc0
00000080: 855c 1a7f a7af b540 5f4f 001e 10b3 abc0
00000090: 89ae df4e a983 9840 c7c2 88fc 2cec b9c0
000000a0: 5b11 f7bd 954b 98c0 dca6 ad6e 2a3f 9340
000000b0: 623e 1116 4847 7e40 f3d0 e85d ab91 b140
000000c0: 62a9 9eb6 0de3 bf40 e8c5 495a c481 8dc0
000000d0: 8189 7cd0 0b39 b040 ee19 d32f a3f1 4540
000000e0: 569d 28f2 7e08 bac0 c547 aa51 ca7e b340
000000f0: 8013 095b 837f a3c0 c814 07e5 0718 b7c0
00000100: c436 7479 dfd3 a440 8bb8 b0d5 cdf4 82c0
00000110: a56a efc4 6301 a7c0 900d 3780 6a10 a2c0
00000120: 816b e2b0 cf69 7cc0 49b3 2085 5d15 c5c0
00000130: cf9a 61cc 6b86 8940 202d 8478 3657 bfc0
00000140: 5c10 bbd4 662b b7c0 d699 6703 8b64 a7c0
00000150: 9cec 98cc 93cf a1c0 44de ac0a dfa5 b3c0
00000160: c17b fa97 9205 80c0 7648 bd44 8ae9 c740
00000170: 80c9 ccba da2f c6c0 3612 fdca 6d14 b7c0
00000180: b282 9aa8 3a61 b5c0 e519 29db 8500 cec0
00000190: 0791 1315 6960 b3c0 e68d 92d4 a329 c240
000001a0: 23aa 2663 84e2 a240 32a3 53b2 c88f a7c0
000001b0: b2f5 3eaa d5d3 c1c0 de5c 6806 eca3 b3c0
000001c0: a504 6082 143e b9c0 61a5 f037 7f8a c1c0
000001d0: 7f01 f8c0 8664 b240 0301 9309 5e04 7b40
000001e0: 220d 9438 557d a0c0 548a 4a50 ae6f c740
000001f0: a8ee deb3 b0be a040 33df 9c06 23b0 b8c0
00000200: abe8 0143 3cec a140 ff9c cc97 db3e 4a40
00000210: f587 e57d 9b41 c3c0 8c52 2ac4 a27f b540
00000220: 822c f58c 0205 b4c0 a7f0 b6f9 f2d2 d240
00000230: ba4a 7736 ba6a be40 06bf 8c57 2533 bd40
00000240: 71a7 28b8 c9e9 99c0 5850 4bed 60c9 d3c0
00000250: f40d ce8f 6b36 9440 8b19 1431 9b79 b440
00000260: cf56 4a9c 6a49 b040 ad30 d7a3 b8a5 9dc0
00000270: bbce 80b8 136c 9b40 0a9d 2997 bef8 cc40
00000280: be35 e99f 3858 b740 9944 e3c3 c709 c740
00000290: 611e b6df 4da3 a440 7a37 ef1a faf4 c5c0
000002a0: 89ec 9219 cac4 b740 1d53 d4c9 1948 c640
000002b0: 0de5 7dcd 3dd7 a940 fe3e 2ad4 8d21 d240
000002c0: 3354 ecfb 00ca c3c0 1ba9 7eb9 ea59 b0c0
000002d0: b74c 81e2 5239 c5c0 ebdc a23c 4a61 9640
000002e0: cc0f 5d62 1cf6 bf40 d615 06ae dc5f 87c0
000002f0: d526 0a87 ad6b c5c0 926b 209b 520b b440
00000300: 4bbf 2394 6738 b9c0 d1a8 0a54 0440 cdc0
00000310: 0501 e73a d51c bbc0 9888 983a ae35 cd40
00000320: 863d ae95 e25a cec0 0cd7 c75d 3965 7340
00000330: cf99 ed1b 6131 aa40 6969 3130 5ef6 92c0
00000340: 9e8a 75b5 25c3 5a40 3e46 486d 0d75 c6c0
00000350: b631 4351 7e6e c0c0 0a36 78e2 94f9 afc0
00000360: 5186 7055 1905 c140 894d 3ad4 0177 c540
00000370: 55ff 02db 1f05 c1c0 7952 1f58 8f4c c240
00000380: d5a0 0a1c 2474 9b40 5c2a b0d2 0829 c740
00000390: 93d0 468c eb6e b8c0 0ed4 17b5 6a07 c040
000003a0: 8524 2a0f 6ba2 cdc0 4688 fc77 0654 bbc0
000003b0: e05a 75ba 8c47 87c0 1248 0f24 307f ba40
000003c0: 675a b7d4 7171 9cc0 e982 455c 34c3 c4c0
000003d0: f8a8 f5ea 8c32 9340 bdc4 b867 f814 a740
000003e0: 4667 b056 46a5 a040 8a6f 5bb9 5309 b0c0
000003f0: fccc 8348 6a73 a640 4e9c 9307 2b9d c240
00000400: 2e6f a568 6108 b2c0 e6af 8208 ed52 a1c0
00000410: db0e 21de 0050 30c0 9412 de19 99b2 a4c0
00000420: 4d03 7ad9 7340 c440 9f95 739d e63f aec0
00000430: 3ac9 6745 d70e c540 f77e 7fa1 d6db a3c0
00000440: d490 c2bc 8df9 b0c0 7b57 c719 4729 b140
00000450: 57ae 2952 c124 d1c0 1a8c b077 7248 a240
00000460: c186 dfce aba6 a0c0 d613 8910 3e41 7340
00000470: 9552 d5d8 3aa1 ab40 1b27 d195 e323 9940
00000480: e881 e248 382d 42c0 de93 a316 18cd aac0
00000490: ec01 2218 3986 66c0 1adc 7c15 4e6f a2c0
000004a0: 1298 beb4 7822 87c0 f0c4 af13 dfd6 9240
000004b0: 618b 9bce bc2d 7b40 0b37 db65 29d4 af40
000004c0: 6b57 8b62 375a b340 5802 ad56 9e21 a3c0
000004d0: 11ec 1d98 3b51 a5c0 cd2b a290 2c31 8ac0
000004e0: 5468 2dfa 83c3 8ec0 91eb 6578 1002 7840
000004f0: 1619 c026 c2fe 9040 6e76 62d6 496c a440
00000500: 9882 bab5 1009 ae40 59ac 82ed 9516 acc0
00000510: 37ef 6df9 9ed6 84c0 9f20 f482 33d0 8440
00000520: cef8 2586 d14e 42c0 fb9d 596c a7a6 9cc0
00000530: 9902 0ade 366b 8ec0 8a51 940e 6e85 6a40
00000540: 16c4 90c4 f44f 79c0 73fc 8421 7c9f 90c0
00000550: 7ad1 adb6 c445 7440 f149 8b21 0848 9240
00000560: bbc6 b941 70f3 44c0 79e9 f087 506d 8740
00000570: 2e63 f3b0 d36d 6e40 5fe1 93ca 0000 6f40
00000580: 7051 a8aa d286 9040 c538 b9b1 e39b 76c0
00000590: bf03 05d8 97d1 6fc0 c243 480c 5544 8940
000005a0: a44a 3396 8176 5540 2baa 4465 319c 7f40
000005b0: 6dea 5e28 e73c 6e40 d82a b9d1 076c 78c0
000005c0: b60e 5754 abbe 7540 d749 fdf0 19e1 7240
000005d0: 2129 47fd 1c7b 6040 7555 f996 2c58 56c0
000005e0: ad98 c5ce 2901 3440 6984 834b a35f 40c0
000005f0: 397f 9392 2fed 8340 3f60 9173 6475 54c0
00000600: d6e8 d867 4021 4e40 73eb 494a ef8e 66c0
00000610: e261 6eed 7586 7240 40a5 5953 cc16 61c0
00000620: faff 7624 5f5b 77c0 b35c 55e8 f7f7 6840
00000630: 84c1 b2b9 76c7 61c0 42fe b796 44b2 4340
-6309.703113934918 -4503.442671586502 -735.7598501237254 1087.3165303647374 -641.7106134425784 7091.217093614737 3600.4215235435227 -3025.198310411802
5164.078242173497 -933.9161500690582 -1665.1902562509367 2437.258538388181 3110.496631698528 -2468.8658176236127 -3713.7340491083323 -3806.972095790335
5551.654283187473 -3545.531478891076 1568.915339942005 -6636.175728366426 -1554.8962324718802 1231.7914378293126 484.4550991700727 4497.66940169431
8163.053567806581 -944.2208753360292 4153.046150001116 43.88779256637268 -6664.4958825477715 4990.790308611414 -2495.7565539203933 -5912.030838434766
2665.9364734951832 -606.6005052381819 -2944.6948618714982 -2312.2080094532066 -454.6132057995347 -10794.730625236074 816.8026359200829 -8023.212776433007
-5931.401683513159 -2994.2715103507317 -2279.7886703289823 -5029.87125664164 -512.6965789383904 12243.08022275961 -11359.708825682057 -5908.428878609606
-5473.229135186108 -15361.045750749248 -4960.410477850825 9299.279924697195 2417.2585689623534 -3015.8919855248178 -9127.669257993668 -5027.92197277324
-6462.080114365705 -8980.993894654037 4708.5263819698 432.27295834945124 -2110.6664472833663 11999.361825292151 2143.34512230552 -6320.136819653027
2294.117698726322 52.491076445492574 -9859.214779559503 5503.635805745271 -5125.0099633439695 19275.796491370213 7786.727393584961 7475.145867153775
-1658.4469915725897 -20261.51448328825 1293.6050407596604 5241.606217628704 4169.416447302049 -1897.4303125022373 1755.0192585111788 14833.488988115005
5976.221190047856 11795.560665520186 2641.6520974075397 -11241.953946973885 6084.789452727077 11408.201471844275 3307.620708402834 18566.21607452537
-10132.00768808471 -4185.916892925535 -10866.647537386378 1432.3224969336832 8182.110875908238 -747.9827537990011 -10967.355683583222 5131.322679544699
-6456.404604181483 -14976.033814747267 -6940.832930028676 14955.36116320295 -15541.770192890206 310.32650545179854 3352.6896661997084 -1213.5919807167613
107.0491765640131 -11498.104897531794 -8412.986854933999 -4092.7907903257337 8714.197919908127 10990.014289176806 -8714.248871206926 9369.119876780767
1757.0352632198967 11858.068929691966 -6254.920109201356 8206.8336515222 -15172.836400287468 -6996.025268347998 -744.9437150162084 6783.188050227256
-1820.361163010495 -10630.409065903588 1228.63761504978 2954.4851663341674 2130.637380135161 -4105.327047075969 2873.707584494374 9530.336168719597
-4616.380503024715 -2217.4629555549354 -16.312513239928062 -2649.2990254781416 10368.905074359523 -3871.9504200096267 10781.68180558515 -2541.919200882195
-4345.553661499365 4393.277737101419 -17555.02063982034 2340.223569409468 -2131.3355626918787 308.0776524881925 3536.6149355567272 1608.9722511940115
-36.3532801729196 -3430.5470477216722 -180.19446951524822 -2359.6525076883963 -740.30893849279 1205.7178485359145 434.8585954738574 4074.080855226964
4954.216347416727 -2448.8092550340043 -2728.616394934718 -838.146760241472 -984.4394420192207 384.12902107060023 1087.6896009459792 2614.1442137498443
3844.5326364788452 -3595.2928276858697 -666.8276241863849 666.0251521179633 -36.615769165554966 -1833.6634992602037 -973.4017906934779 212.16968468635997
-404.99725777196124 -1063.8712216166575 324.3605257787491 1170.0079404605751 -41.90186330386265 749.6643217869997 243.43209121262174 248.00009659655458
1057.7057291316705 -361.7430894122338 -254.54978562335415 808.5415273328474 85.85165934571211 505.76205946752697 241.90321749246814 -390.7519089921093
347.9168284798319 302.0688333410339 131.84728874109808 -89.37772154187208 20.00454418491488 -32.74717086717357 637.6482287905884 -81.83425606915351
60.25977800456319 -180.46671022832342 296.4037908851443 -136.7124420882119 -373.7107281349596 199.74901215240752 -142.23324284470812 39.39271816238444

models.4.layer.weight f8 [1, 200]
00000000: a553 3f43 9358 8b40 97e5 9d1f d471 38c0
00000010: fa50 8d3b caac 8e40 e954 cd4a 8245 94c0
00000020: 93db 25f4 b26a 87c0 a19d d405 2d5c 6e40
00000030: 5962 873b b2ac 78c0 c1f5 6670 6076 74c0
00000040: 3b87 2a9a 0b04 8dc0 5b7d 739f 0def b4c0
00000050: 8d8e 3aed 42c4 99c0 9787 d5c8 32e6 af40
00000060: 91b2 46c6 7192 7940 990e dee2 907d a940
00000070: 2af8 3169 6370 a440 811a 5ec2 105c 6440
00000080: 1797 9a01 5351 a3c0 a34e 9f63 8310 b4c0
00000090: 6914 81b0 fb35 7240 36c9 543a 8d77 99c0
000000a0: 465c 4d92 c0df 9ec0 3371 da65 0735 b4c0
000000b0: 5f68 f951 6fe7 9fc0 2e74 4ddf 5a81 ad40
000000c0: 0b71 acbe ced0 9540 1cb2 fefc d069 9640
000000d0: 4e3f ffc7 67d2 a940 78be a5d7 667b 99c0
000000e0: 2f62 77cf 3454 9ac0 af56 e7b8 8c4d aa40
000000f0: c1df d1d3 e390 a6c0 30b3 93a1 0ea3 bbc0
00000100: e567 0992 5d8f 99c0 b247 0a7d a4ab bd40
00000110: db06 0e36 583b b140 1ec9 668e bdab b340
00000120: 199c 18e0 2a8a bd40 587c 11a7 e3fb b740
00000130: 9b9c a09d 4e68 96c0 f2d1 bbc5 0bce b440
00000140: 866d d926 cb7b b3c0 382f f4fb 2698 8840
00000150: acc0 b810 a790 9ac0 d9a2 7c67 14c1 9640
00000160: 6d3b 9b35 5676 c040 722a d881 4d8b bcc0
00000170: 4c5b e21d ae94 c340 93ac 011a 2d68 96c0
00000180: 8fdb d874 be77 b340 1d8a 9d37 a216 8e40
00000190: 9403 215c f4aa b2c0 f154 7b5d fa09 ac40
000001a0: 8632 96a3 03fb 9440 2899 2aef 472e a040
000001b0: 9386 6e9a 30b3 b1c0 c2dc 23d6 831e b1c0
000001c0: 64e4 b723 807b a740 7e40 8e49 66c4 c6c0
000001d0: b8b5 686e 3b91 bcc0 4ec7 4b18 ec24 b3c0
000001e0: b19f a268 7409 3340 9901 0912 86ca 7a40
000001f0: e513 0a0f cb68 abc0 d9b0 2536 b462 b9c0
00000200: 2566 8b70 f4c7 d040 77ac a868 9c54 cc40
00000210: 831e b378 829b cbc0 2a6e 5cf0 6a42 c0c0
00000220: 67ac d1aa b441 bf40 6cb4 4107 8ab6 c240
00000230: b4bb 0b95 a333 af40 a01d 2abc 644d c7c0
00000240: 7a7d 317a 2dec a9c0 4ce4 fea8 7811 aac0
00000250: 7074 00b0 f490 b940 c3e8 8635 259c b740
00000260: ae21 5114 8a6a cbc0 5164 feda 6417 7ec0
00000270: aab9 1966 dbf7 b4c0 3338 6b11 8ac6 c6c0
00000280: 4df7 da89 6c69 bcc0 66ee 2199 897e c9c0
00000290: 3902 a3b0 21ee c940 5b0a 230a 8a90 a4c0
000002a0: 76c5 9e86 b342 c0c0 5e96 941c d96f ce40
000002b0: 3d9e e78f ede5 c040 2577 2aff 08e3 a8c0
000002c0: 6f66 347d cc17 b740 9727 2166 9a0b c740
000002d0: 890d bed1 c396 bac0 2a7a 033f effb 8440
000002e0: 4e97 9348 abe9 cb40 e4cd e196 c743 8240
000002f0: 3a3a 61ab f15b c4c0 3145 8a75 8b52 b7c0
00000300: 5371 ea35 527f c3c0 c280 abf3 6f87 a6c0
00000310: 2c30 3979 a614 afc0 3425 0c67 203d bf40
00000320: 4cca 6e38 bf94 d440 6768 2a32 53a1 b9c0
00000330: b2cc fd85 198b ca40 0e13 daa5 9cf6 d240
00000340: 9f74 70aa bd7c 9640 33c3 229b 5526 d440
00000350: 0353 1c2d c491 9c40 79e1 2bcc c314 bcc0
00000360: b7db 9b93 e868 7fc0 a351 ac2e 90b9 c5c0
00000370: 3855 45bf 48e6 c740 fd27 3434 2547 b0c0
00000380: aa4a 5b03 9502 b1c0 2d5c e583 b76a d740
00000390: 7d64 a5f7 1dc6 9d40 4419 bb53 df23 afc0
000003a0: 2da9 f0c0 92ea c1c0 d141 30d3 aec5 85c0
000003b0: 58c2 1894 cb7f bfc0 89f9 bb53 2397 a4c0
000003c0: 640e eed6 0701 bf40 f976 a5cd c467 9ac0
000003d0: 58c1 8bcc b844 af40 2693 c3da da45 d640
000003e0: c6af 65e8 fc23 d1c0 0b5a b888 c23c ce40
000003f0: 35ed 8d8d 98a0 a0c0 df5a 19e6 3ad4 88c0
00000400: 213c 62c2 14eb 9740 9357 4ce1 9790 97c0
00000410: c678 3f60 6b75 a4c0 776e bb60 b977 b4c0
00000420: ce33 7afd de30 b6c0 24c5 477d 1c76 c040
00000430: 3792 c255 74f7 9ac0 e167 7e45 ecee b940
00000440: 31fe 1f11 458f b040 a364 e0a7 c753 cc40
00000450: 2141 824b 4a5d ba40 a671 8194 0f1a b240
00000460: d353 adf2 cd5d cdc0 be59 405d dc11 d040
00000470: 8813 27e8 50aa c7c0 4576 7c5c 62e8 d640
00000480: 9e10 c7bf 039f d340 cdc7 6f70 fce7 7440
00000490: e82c b3d1 3904 ab40 2ea3 64fe 7f51 ce40
000004a0: 8bc5 a98b 73d1 c040 4322 511f 9c3b d8c0
000004b0: be3b d1ad 7e99 bec0 ef06 3031 2d0f c140
000004c0: c6ae c346 3f4b c4c0 3f28 5400 ef78 afc0
000004d0: 76a4 a0bc 8fad d740 c6bf 27ab dd3b 9cc0
000004e0: 36bd e316 856f e2c0 ad3b 69ee d692 d740
000004f0: 9353 4d41 e037 d240 24eb 129f bd8a b240
00000500: ef82 cc25 f406 a040 a4c1 7970 5aff 0240
00000510: 090a 79a3 a0c7 c8c0 54e1 15b4 4fa5 d1c0
00000520: 765a 20c2 e5d3 c5c0 0a0f fcf3 cc04 9640
00000530: 1644 b00a 59a4 b340 a51f 194a 6d26 d4c0
00000540: 0e56 c67b ed97 5fc0 d729 7fa9 b247 d5c0
00000550: 5fdd a5c2 d44d bc40 4deb 9cd8 73e6 b4c0
00000560: 3ad0 a437 eb84 dec0 3cae 9cbc 1553 9a40
00000570: b9ca 63e6 28ea ce40 48ad a5ea 0bba cf40
00000580: cbdf 9a6b 1ec2 d140 af11 6cf5 4bb5 d340
00000590: 0190 cfc6 a877 a440 5378 d450 74aa c540
000005a0: d6ae 03f5 b371 d0c0 4780 14a2 55ce d5c0
000005b0: f86b e58c df8a dfc0 fe1c 4501 524e a6c0
000005c0: 08ef 0f27 677f bc40 0607 a7c5 95f5 aec0
000005d0: 370c 9d62 e97b bdc0 1527 b23a a3dd d1c0
000005e0: fec9 615d 558c d0c0 4da1 3c8f 7c49 b2c0
000005f0: 1c66 02f9 1db5 c6c0 fe5a 3570 78ee c0c0
00000600: 79ee 9932 06c2 b5c0 2c18 f9ac ce11 d3c0
00000610: a158 d8a7 8790 d340 41a8 7a25 bc44 c640
00000620: 099b 25bd 3452 bac0 939d 8db7 8cbd cbc0
00000630: 34cc 4ced 1fde 9840 51b6 c80e 5932 a9c0
875.0719056079294 -24.44464299778846 981.5987463989579 -1297.3772384722781 -749.3373797376283 242.88049594427596 -394.79351380238 -327.39854469507924
-928.5056651422996 -5359.053214281182 -1649.0653580808168 4083.0991884925857 409.15277698150845 3262.782980860979 2616.1941619506297 162.87704580669018
-2472.6621216115414 -5136.513238865565 291.37394762441414 -1629.887917828351 -1975.9380580985612 -5173.028897907864 -2041.8587111444429 3776.6774849132844
1396.2018992370602 1434.4540900989732 3305.2026977314736 -1630.8504320046904 -1685.0515726712872 3366.7748482030215 -2888.44497543198 -7075.057152968642
-1635.8413773984587 7595.642532961372 4411.344574810671 5035.740454124547 7562.167481935606 6139.889268010003 -1434.0767731757721 5326.045985926396
-4987.793561543693 787.0190352513227 -1700.163149725685 1456.2699260210413 8428.673510936753 -7307.302762518275 10025.360286993578 -1434.0440445195752
4983.7439704452545 962.8292076404356 -4778.95453077638 3588.9889944592655 1342.7535537212693 2071.1404965698202 -4531.18985644136 -4382.514986268421
3005.7502725092218 -11656.799119740954 -7313.23215345799 -4900.92224572769 19.03693250627811 428.65773204343856 -3508.396599116257 -6498.703951221157
17183.819369172812 14505.221943935596 -14135.019308462046 -8324.835460237304 8001.705731491652 9581.078346455666 3993.819496504462 -11930.786992325273
-3318.088822886054 -3336.7356643346484 6544.955810573985 6044.145348007037 -14037.078745023198 -481.4621229111845 -5367.857026679829 -11661.078656580392
-7273.423978505493 -13053.074985734373 13276.2632030259 -2632.269608588232 -8325.402545782486 15583.696184705183 8651.855954124703 -3185.5175717611733
5911.798785471924 11799.20624174531 -6806.764919164948 671.491819407621 14291.338152359847 584.4724557534178 -10423.888042596274 -5970.544762269871
-9982.642270379385 -2883.7186559290576 -3978.3251436110786 7997.126572379191 21074.987819383197 -6561.324984217156 13590.19940159316 19418.447622793778
1439.1852204867535 20633.337593737244 1828.4415783334414 -7188.764834158465 -502.5567813957418 -11123.126424350607 12236.568337122546 -4167.145327815783
-4354.582082467774 23978.86742528917 1905.5292650072654 -3985.9361856907217 -9173.146513064008 -696.7103637476049 -8063.795228526542 -2635.56899821683
7937.030623320115 -1689.9421907285562 4002.3609355615154 22807.419602292728 -17551.95168440023 15481.519797367064 -2128.297954974371 -794.5287591915948
1530.7702727650833 -1508.1483203819705 -2618.709718688481 -5239.724132265538 -5680.871055257461 8428.222573252926 -1725.8636083986037 6638.922935390817
4239.269792556342 14503.55981068529 6749.2902146729475 4634.060859766241 -15035.608968416147 16455.4431916119 -12116.632084736382 23457.536894908426
20092.058580175617 334.49913066543814 3458.1129280083005 15522.99995096176 8610.902699681717 -24814.439411433657 -7833.494839741788 8734.353063586603
-10390.494347057665 -4028.4667993830803 24246.245887909514 -1806.9664732180404 -37756.15904414134 24139.358301456716 18655.50398572122 4746.7407085250925
2051.476850882514 2.374684218135558 -12687.254988794231 -18069.24536654477 -11175.794986766978 1409.2001494774036 5028.347819344161 -20633.7076475915
-126.37386984223141 -21790.791595259532 7245.8310950913865 -5350.452524001547 -31251.675271228167 1684.7712273103089 15828.319530939089 16244.093098363504
18184.475317686603 20181.186854378957 2619.829641805962 11092.90871673465 -16838.811829491366 -22329.33801758315 -32299.492974620283 -2855.16016593913
7295.402939792497 -3962.792523593528 -7547.911660972101 -18294.550457513968 -16945.333824584253 -4681.48656062067 -11626.23416166292 -8668.940924329214
-5570.0242096144875 -19527.229307435613 20034.11961945205 11401.469893772273 -6738.206011152602 -14203.099351598683 1591.5311786651264 -3225.1739409182123
